models/realizado/modelov2_deep_learning.pth (torch, 281347 bytes, 7 tensors)

dense1.weight f4 [128, 25]
000000 e0 8f 81 bc 86 b7 01 3e ad 79 1b be 94 25 a8 be
       -0.015815675 0.12667665 -0.15183134 -0.3284117
000010 c2 cf e4 3d cd 4a 8d bd 9b 41 3b 3d 81 48 69 bd
       0.11172439 -0.06899033 0.045716863 -0.05695391
000020 48 11 19 bc e0 2d 98 3a 22 54 d6 bd 0f e7 03 bd
       -0.009342499 0.0011610352 -0.10465266 -0.032202777
000030 85 5c 7f bb b3 13 be be b3 01 d9 3c 23 e8 80 3d
       -0.0038965058 -0.37124404 0.026490068 0.062942766
000040 bc 95 80 bd bc 57 ca b6 c4 54 43 3b 56 6b 12 3b
       -0.062785596 -6.0302827e-06 0.0029805163 0.002234181
000050 18 c7 c3 3b 25 73 61 3b a5 dc bb 3d 6b ea d5 bd
       0.0059746616 0.0034400907 0.09172944 -0.10445102
000060 94 25 bd 3b ec fd d3 bd ce 10 25 be 4f 15 18 be
       0.005772302 -0.10351166 -0.16119692 -0.14851879
000070 83 1d 13 bd 07 79 30 be 63 f9 8b bd 04 8e 52 38
       -0.035916816 -0.17233668 -0.06834676 5.0200164e-05
000080 db 3f 59 3c 05 9e 00 be 22 c3 52 bd 78 5b 80 bd
       0.013259853 -0.1256028 -0.051455624 -0.06267446
000090 1b a0 9f bc 4b 6e 8b bc f6 60 85 bc 4b a8 e5 bc
       -0.019485524 -0.017020365 -0.016281586 -0.02803435
0000a0 0e 82 b8 bd c5 11 0b 3e af cb 9d 3d 61 dc 97 3c
       -0.09009181 0.13580997 0.07704865 0.018537702
0000b0 e0 24 c5 bb 6b 81 97 bc 0e 3f 07 bc 31 77 49 be
       -0.0060163587 -0.018494328 -0.0082547795 -0.19674374
0000c0 cf 10 ba 3c 4f 81 c9 bb ba e5 09 be 39 84 bf 3d
       0.022713093 -0.006149448 -0.1346654 0.09351391
0000d0 50 2f 89 3d 78 97 3c 3c 3d c5 d6 3c 71 64 8e bb
       0.06698477 0.011510722 0.026217097 -0.0043454696
0000e0 fc 49 22 bd 58 9f de 3d ae 96 8e bd db 59 f3 bc
       -0.03962134 0.10870236 -0.069623336 -0.029705932
0000f0 e7 fc 22 3e 04 88 b6 bb 6c 0b d7 bd 0c f7 25 bd
       0.15916787 -0.0055704135 -0.105002254 -0.040518805
000100 b9 e8 7f bd 56 65 82 bd 82 5b 65 3b 4a 46 23 bd
       -0.0624778 -0.063669845 0.003499717 -0.039861955
000110 6b 86 34 bd 99 87 d8 3b ec e3 10 3d f7 59 f4 3c
       -0.044073503 0.0066079614 0.035373613 0.029828055
000120 4b fa 22 3e 30 d4 34 bd f0 04 ad 3c fe fd c6 bc
       0.15915792 -0.04414767 0.021120518 -0.024291035
000130 ac 27 db 3d 29 8d 11 3e ce aa 5b 3d 81 25 23 3e
       0.10700926 0.14214005 0.05362969 0.15932275
000140 df 74 be 3d 5e 09 8b 3d 7d 56 9c 3d cf dc 3b 3d
       0.09299635 0.06788896 0.07633684 0.045864876
000150 10 71 c9 3d 47 6d c2 3d 5c ab b6 bd c7 9f b9 bb
       0.09836018 0.09493499 -0.08919403 -0.005664799
000160 cc 56 2a bd e6 6d 5f bd 32 6c 17 3c 13 24 37 3d
       -0.041586682 -0.054548167 0.009242104 0.044712137
000170 4c aa 5e bc c0 be 9f 3c b2 b0 bc bc 38 9e 37 3c
       -0.013590407 0.019500136 -0.023033474 0.011207156
000180 d7 7f 0d 3d 61 3d c2 bd 03 89 25 3d e8 ae 6d 3d
       0.034545746 -0.09484363 0.040413868 0.05802813
000190 90 ec 7f bc 1f c5 96 3d a6 9b 00 be f1 5f 5e 3d
       -0.015620366 0.073618166 -0.12559375 0.054290716
0001a0 40 b1 58 3e 69 77 97 3d a5 cd 5b bc 86 de 9c 3d
       0.21161366 0.073958226 -0.013415729 0.076596305
0001b0 09 20 3b 3e 4b 5a 69 3d bc a6 3e 3d 61 84 cb 3d
       0.18273939 0.056970876 0.04654573 0.09937359
0001c0 24 d3 eb 3c c5 8b d4 bd cb b3 b4 bb a8 3d 9d 3c
       0.028787203 -0.103782214 -0.005514597 0.019194439
0001d0 ef 6d 36 bd d9 45 18 bd 36 9b 96 bc 0d 2f 85 bc
       -0.044538435 -0.037175987 -0.018384557 -0.016257787
0001e0 8f d4 ad 3c 21 69 75 3c 3e 7d 17 3e ad 57 02 3d
       0.02121952 0.014978678 0.1479387 0.031821895
0001f0 fb 0f 16 3c b1 5a 26 bd 9d a0 11 3e 58 bd 8a 3d
       0.0091590835 -0.040613834 0.14221425 0.06774396
000200 21 2c d4 bd 88 5b 03 be 06 b5 c3 3b 1b 04 e0 bc
       -0.103599794 -0.12827885 0.0059725074 -0.027345708
000210 44 20 8c bc fa 49 86 bd aa 8c 7e 3d dc 02 aa bc
       -0.01710523 -0.06557079 0.062145866 -0.020753317
000220 67 39 9c 3d 58 c2 af bd e7 77 ae be 21 bd 60 3c
       0.07628136 -0.0858199 -0.34075853 0.013716967
000230 b1 11 01 3c 7d 62 fa bb fb 30 88 3b 8d c4 ee 3a
       0.007877753 -0.0076411352 0.0041562296 0.0018216536
000240 ce b3 12 3c 68 4c 09 bd 9f 07 55 3a 93 ba 19 be
       0.008954002 -0.033520132 0.0008126441 -0.15012579
000250 d9 2b 5e 3d ea 62 74 3b aa f7 5f bc ed 25 a6 3c
       0.054241035 0.0037290403 -0.013669888 0.020281756
000260 4b 35 be bc 5c be f4 bc 3d 01 6f 3e ab ad 5e bc
       -0.023218771 -0.029875927 0.23340316 -0.01359121
000270 4e 48 80 3b 66 af f5 3d 13 f0 07 bd 9a 4d 79 3d
       0.0039148694 0.11996345 -0.033187937 0.060865022
000280 1b 8c 8a 3d ff 02 ae 3d b2 20 b1 3d 47 21 c6 bd
       0.06765004 0.08496665 0.08648814 -0.09674316
000290 34 74 8b bd 04 fd af 3b 79 d4 cb 3d 3a 8c ee 3b
       -0.06809273 0.005370738 0.09952635 0.0072799
0002a0 62 37 fd bc 5d 16 47 bd 33 e4 59 3d f0 b9 6f bd
       -0.030910198 -0.04860531 0.053196143 -0.058526933
0002b0 74 56 25 bd c8 07 6b 3d 0b 11 19 3d 42 4f 02 3d
       -0.04036565 0.057380468 0.03736977 0.031813867
0002c0 4f f0 bc be d6 3d fa 3d 03 73 a2 3c 74 5b 3b be
       -0.3690209 0.122188255 0.019830232 -0.18296605
0002d0 84 4e f6 bd 43 e1 2d 3d 34 aa bf be 85 13 04 be
       -0.120266944 0.042451154 -0.37434542 -0.12898071
0002e0 2b 81 a0 3d ac 66 b2 bd 0c 02 bd bd 7c 38 26 ba
       0.07837137 -0.08710989 -0.09228906 -0.0006340814
0002f0 0e 90 c6 bd ff fb 1d 3b 92 8c 28 3c 1c d4 a7 3c
       -0.09695445 0.00241065 0.010287421 0.020486884
000300 fb 93 4a 3d 8d a2 25 3d e2 f3 1b 3c 1b cb 06 bc
       0.04945753 0.040438224 0.009518595 -0.008227135
000310 43 d2 d8 bc a7 60 ab be be cc 07 3d ac 8f 30 bd
       -0.026467448 -0.33472177 0.03315424 -0.043105766
000320 0a 5a c7 3c 63 a6 98 be 24 e3 07 3e a9 1b 30 3c
       0.024334926 -0.29814443 0.13270241 0.010748782
000330 c3 9f 2a be 80 1b eb bd fd 92 15 bc e7 e0 91 be
       -0.16662507 -0.114798546 -0.009129283 -0.284919
000340 07 a8 48 bd bf ba 53 bc 34 df 18 be 8b 7b 4a bd
       -0.04898837 -0.012922942 -0.14928895 -0.049434226
000350 00 c8 a1 3b b4 55 35 3d 70 74 eb 3d 3b fb 2b 3e
       0.004937172 0.044271186 0.11496818 0.16795056
000360 35 51 4c be 47 cf 80 3c 29 c4 8f 3c 57 2d 92 3c
       -0.19952853 0.015723838 0.017549591 0.017843885
000370 05 1b 9e bc 8f dc a4 bc 94 3d 3c be cd fe 8e 3c
       -0.019299993 -0.020124702 -0.18382865 0.017455483
000380 13 5d 80 3c 69 ac 7a 3d cb 78 85 3e 7b 28 0a 38
       0.015669381 0.06119958 0.2606872 3.2939464e-05
000390 79 9d 9f 3d 4c 3a 5c bd b6 c0 05 bd 70 12 7a bd
       0.077937074 -0.053766534 -0.032654487 -0.06105274
0003a0 e4 1d 8a 3d 6f 6c 17 bd d0 be 4d bd be a0 48 3b
       0.067439824 -0.036968645 -0.0502308 0.0030613388
0003b0 41 13 6d 3c 13 4f 73 3d 2e 5c cb bd b9 60 e2 bd
       0.0144699225 0.059401583 -0.09929691 -0.11053605
0003c0 1d a2 28 be 75 b2 28 3e fd f8 dc bc 48 f9 82 bc
       -0.16468091 0.16474326 -0.026974196 -0.015988007
0003d0 e1 f6 9a bc 5e b4 0e 3d 72 a8 6a 3c e3 c4 10 3e
       -0.01891655 0.03483998 0.014322387 0.14137606
0003e0 ae 75 e2 3c 1a 05 08 bd 75 3e 20 3d 62 fe 11 3e
       0.027644005 -0.03320799 0.039122064 0.14257196
0003f0 1b 1a 0e 3e 1f 59 d3 bd 03 e3 38 3e 5a af f5 bd
       0.13877146 -0.10319733 0.18055348 -0.11996336

dense1.bias f4 [128]
000000 af f5 0f bf 0a 89 cc be 90 6a 74 bd 08 9b 2f be
       -0.5623426 -0.39948303 -0.05967194 -0.17148983
000010 c0 33 d1 3b a2 30 03 bf af 37 3a be aa 60 04 be
       0.006384343 -0.5124608 -0.18185304 -0.129275
000020 e7 62 f4 be bb 27 f0 bd cb 6a 2f 3d 9b ff c2 bd
       -0.47731707 -0.11726328 0.042826455 -0.09521409
000030 05 81 31 be 87 16 2d 3d d6 ea bc 3d e2 d7 b6 3d
       -0.17334373 0.042257812 0.09224479 0.08927895
000040 f3 ec 42 be e1 1d c3 bd de c0 16 3e 69 76 36 be
       -0.19035701 -0.09527183 0.1472201 -0.17818607
000050 50 d2 4a be eb 1a 5e 3d 16 0f 05 bf 4f a4 c2 bb
       -0.1980679 0.05422489 -0.51976144 -0.0059399973
000060 bf 2c af bc e0 63 86 be bb d5 22 3e 27 08 e2 bd
       -0.021383641 -0.26248074 0.15901844 -0.11036711
000070 1a 73 87 3d 8f be 95 bd 95 12 7e 3d 42 12 6c 3c
       0.06613751 -0.07311737 0.06202944 0.01440865
000080 23 d4 a5 3b 99 38 39 be 44 a9 48 3e 05 d5 a9 bd
       0.005060689 -0.18087997 0.1959582 -0.082925834
000090 22 9e d1 3d 36 71 c4 3d e5 e0 39 bc d4 ad ff bd
       0.102352396 0.09591906 -0.011345123 -0.12484327
0000a0 f8 66 98 bc a8 ad c7 bd 95 2a 20 3e 48 c8 13 bf
       -0.018603787 -0.09749919 0.15641244 -0.5772748
0000b0 89 5a 8d 3d 53 b0 29 bc 65 2d 55 be be 7f e0 3d
       0.06902034 -0.01035698 -0.20818098 0.10961865
0000c0 5b 4b af be 01 0e ed be 85 e4 61 be df 69 90 bc
       -0.3423718 -0.46299747 -0.2205983 -0.017628608
0000d0 55 dc 91 bd 2c 59 f8 3d a2 2b 05 be c4 eb 62 bd
       -0.07122103 0.12126383 -0.13004926 -0.055400625
0000e0 4c 09 07 3d e1 8b 4e bd db 97 50 bd d0 9e e8 bd
       0.03296785 -0.050426368 -0.05092607 -0.11358416
0000f0 a6 d8 ba 3c 0d eb a9 3d 4c 6b 00 3d 84 92 26 be
       0.022808384 0.082967855 0.031352326 -0.16266829
000100 88 7b 6e bd c3 88 12 be 5e e6 14 3d 80 ff d7 be
       -0.058223277 -0.14309983 0.036352508 -0.4218712
000110 2f 82 9d bd f7 eb 91 bd 77 0f 8a bd a4 1a 34 bd
       -0.07690846 -0.07125085 -0.06741231 -0.04397072
000120 fe 95 d2 3d 16 17 8a bc e7 6c b6 3c e3 60 49 3d
       0.10282515 -0.016856711 0.022268726 0.049164664
000130 49 a8 c7 3d 70 d1 47 be a1 38 ad be 08 c4 fe be
       0.09748895 -0.19513488 -0.33832267 -0.49758935
000140 ff 46 e0 3c 41 be ef 3d bf 10 15 bf 81 ba 0c be
       0.027377604 0.1170621 -0.5822868 -0.1374302
000150 b8 a4 96 bc b1 52 ff be 7b cf b5 bb b0 f4 59 3d
       -0.01838909 -0.49867776 -0.0055484152 0.053211868
000160 65 92 c7 3c ff fd a8 3d a8 24 12 bf f9 5b 7b be
       0.024361799 0.08251571 -0.57087183 -0.24546804
000170 a5 31 10 be 31 89 50 3e 03 6c 59 be 6c 79 12 be
       -0.14081438 0.20364834 -0.2123261 -0.14304131
000180 70 3a 66 bd f6 85 80 bd a4 77 12 3e 1f ca 39 bf
       -0.056208074 -0.06275551 0.14303452 -0.7257404
000190 b9 9a 60 bd 5c 73 32 bd 08 6a 79 be ba 02 fe bd
       -0.054835055 -0.043567047 -0.24356854 -0.12402864
0001a0 8b 8a b3 be af 66 98 3c 98 69 7d 3e e7 0a dc bd
       -0.35066637 0.01860365 0.24747312 -0.10744267
0001b0 4a 52 cf bd c4 15 29 3c 9a b6 32 3d f6 dc 06 bd
       -0.10123117 0.010320131 0.043631174 -0.03292557
0001c0 85 1b fa bd 0d fd 19 3e 00 63 93 bd 1e 13 9c 3d
       -0.1221228 0.15037937 -0.07196617 0.07620834
0001d0 b3 69 f2 bb 76 10 f7 bc d0 5f 0c bd 57 66 b9 3d
       -0.0073978542 -0.030159216 -0.03427106 0.09052723
0001e0 1d 21 5c 3d b5 36 9c bd 3b 64 0e be 2f a8 d0 3d
       0.053742517 -0.07627622 -0.13905422 0.101883285
0001f0 d5 f9 29 3d b8 06 1a be 77 e8 68 be c4 f7 56 3d
       0.041498024 -0.15041625 -0.22744928 0.05248238

dense2.weight f4 [256, 128]
000000 d6 bd 51 bd 28 ad 28 be 3f c7 23 bd c6 58 8f bd
       -0.051206432 -0.16472304 -0.039984938 -0.06999354
000010 6b 2c 14 3d 0f 2b c4 bd 4c a2 91 bd 47 75 d0 bb
       0.036175173 -0.09578525 -0.07111034 -0.006361637
000020 c4 54 27 be 41 8d 31 bd 48 96 89 3d 3d 0d 9b 3d
       -0.1634093 -0.0433476 0.06718117 0.075708844
000030 d6 a8 ed bb f0 02 59 3d 90 55 9f 3d d4 b5 71 3d
       -0.007252793 0.052981317 0.077799916 0.059011295
000040 b9 c6 ea 3c 73 6d 01 bd f7 52 38 bd c3 1d 55 bc
       0.028659211 -0.03159852 -0.045000996 -0.013007584
000050 78 ea 2b bc 54 ab b5 bc a2 85 42 be 8f ac 92 3d
       -0.010492913 -0.022176422 -0.1899629 0.07161819
000060 41 d6 2a bd 89 c3 d4 bd c6 c4 78 3d 9d bf 81 3d
       -0.041708235 -0.10388858 0.060734533 0.063353755
000070 9a 40 9e bc 46 68 a0 3d cc 85 a3 3d 68 41 d8 bc
       -0.019317914 0.078323886 0.07984504 -0.026398376
000080 49 22 25 bd 2d d0 7e bd ac 42 15 3d fe f2 39 3b
       -0.0403159 -0.06221025 0.036440536 0.0028373594
000090 91 b7 1b 3d d7 d2 84 bc 5d 24 8e 3d e8 3f de bc
       0.03801686 -0.016213818 0.069405295 -0.027130082
0000a0 49 5b d2 bc 09 f1 c2 3b 19 fd c9 bc 10 52 16 be
       -0.025678294 0.005949144 -0.02465682 -0.14679742
0000b0 24 0d e2 3d a2 91 b9 3d 8f 1e ed 3c 25 64 07 3c
       0.110376626 0.090609804 0.028945236 0.008263622
0000c0 fd 15 03 be 0b f9 67 be ac 2c a1 bd ed 18 2a 3d
       -0.12801357 -0.22653596 -0.078698486 0.041527677
0000d0 5d 7a 28 3c 3c 06 65 bc 6f 42 22 bd 00 fc f8 3b
       0.01028308 -0.013978537 -0.039614137 0.0075984
0000e0 7a 19 d7 3c 92 b9 4e 3d c1 9f cc 3c f7 20 7d bd
       0.026257265 0.050469942 0.02497852 -0.061799016
0000f0 90 60 72 3d da 1a 96 3d 7b dd c1 3d a5 bc 15 3d
       0.05917412 0.0732934 0.09466072 0.03655686
000100 e8 ef 63 3d 30 d4 e4 3c 30 bc b7 bc 94 1c 33 be
       0.055648714 0.02793321 -0.022428602 -0.1749137
000110 aa 1e 9c 3c c6 5e 87 bd 5e be 02 bd c1 30 0b 3d
       0.01905759 -0.066098735 -0.03191983 0.033982042
000120 ac 37 0c bd 5f 58 a7 3c 5b 5d 34 bd 2b 42 aa bd
       -0.03423278 0.02042788 -0.044034343 -0.08313402
000130 9c 7d 10 3b 53 0d 4b 3b 0d e3 11 be 44 3b ea 3b
       0.0022047525 0.0030983284 -0.14246769 0.0071481783
000140 55 4f b5 3d ee 95 a8 bd 2e 9b ed bd 4a ce c9 3d
       0.08853022 -0.08231722 -0.11601864 0.098538
000150 c4 26 e4 3d 61 a9 c6 bd 70 38 81 3d af 38 46 bc
       0.111402065 -0.09700275 0.06309593 -0.012098475
000160 8c fa 48 bd d3 eb b8 3d 6d 5e e5 bd 70 6d 8e ba
       -0.049067065 0.09029355 -0.11199651 -0.0010866355
000170 96 85 9e bc 85 c2 cb 3c ce 7c 70 3d bf 5b 55 3d
       -0.019350808 0.024873028 0.058712773 0.05208945
000180 c8 65 90 bd 53 1d 87 bd b1 23 e6 3c ff 8e 12 be
       -0.07050663 -0.0659739 0.02809319 -0.14312361
000190 f9 16 7f bc e5 e1 b7 3c a3 07 7e 3d 7d f7 77 bc
       -0.015569442 0.022446582 0.062019 -0.015134689
0001a0 0b 27 39 bd 44 07 86 bc da 57 13 bd c8 de c8 3d
       -0.04520325 -0.016360886 -0.035972454 0.09808117
0001b0 3b 7d 0e 3c c6 ce 05 3d 22 ec 01 3d 6a 8d 8d 3d
       0.008696849 0.032667898 0.031719334 0.06911738
0001c0 61 40 79 3c e7 44 24 bc ac 98 84 3d 8c a1 dd bb
       0.015213103 -0.010026193 0.06474432 -0.0067636427
0001d0 12 2c 5e 3d 36 b2 2c bd ee ee da 3c 7d e5 9b bd
       0.054241247 -0.042162143 0.026725259 -0.07612131
0001e0 0e 3e 09 3b ca 64 50 3c 8f d7 10 3d 40 f9 18 3c
       0.0020941528 0.0127193425 0.035361823 0.00933677
0001f0 c2 2d 00 3d be e1 22 3d 40 a1 63 bc 0b 4e 87 3d
       0.031293638 0.039766066 -0.013893425 0.066066824
000200 18 9c 97 3c 92 bf 04 be cf 06 c6 3c 36 24 a6 bb
       0.018507048 -0.12963703 0.024173168 -0.0050702346
000210 10 08 9c 3b c1 cf 84 bd 1e 8d dd bb 87 07 df bb
       0.0047617033 -0.064849384 -0.0067612072 -0.0068063173
000220 02 f4 3e be 3c b9 bf 3d 16 4a 5e 3d 23 8e 82 3d
       -0.18647769 0.093615025 0.054269873 0.06374767
000230 fe 05 63 3d 86 51 f9 3c 75 c8 8c bd 80 a8 29 bd
       0.055425636 0.030434381 -0.06874172 -0.04142046
000240 02 54 22 bd b2 2f a4 3d de 25 ce 3c 24 d9 cf 3d
       -0.039630897 0.0801691 0.02516454 0.10148838
000250 16 9a bb 3d 30 ee 9c 3a f5 b6 17 be bc 00 92 3d
       0.09160249 0.0011972841 -0.14815886 0.07129046
000260 63 3b 80 3d 85 c8 56 bd 92 52 9f 3d 04 d0 4f 3d
       0.06261327 -0.052437324 0.07779421 0.05073549
000270 48 e7 26 3d 7b ba 19 bc 23 53 43 3c a2 aa ed 3c
       0.04074791 -0.009382839 0.011921677 0.029012028
000280 de 7f c8 bd 27 5c 02 be 22 d6 09 3d 4c d6 74 bc
       -0.09790014 -0.12730466 0.03365148 -0.0149436705
000290 53 b1 3b bd 3b d2 c3 3c 95 95 df 3c 73 1f a8 3d
       -0.045823406 0.023903957 0.027293006 0.082091235
0002a0 8e a6 7c 3d 93 70 db bc 07 c2 f8 bc 40 a4 18 be
       0.061682276 -0.026787078 -0.030365957 -0.14906406
0002b0 6e 1e c9 3c 1a 76 aa 3c 7b 4d 84 3d 4e ca 8d bd
       0.024550643 0.020808268 0.06460091 -0.06923352
0002c0 27 d8 27 be 2f c6 7b be 2a 24 05 be 8a f0 da 3c
       -0.1639105 -0.2458732 -0.13002077 0.026726026
0002d0 0b 59 c6 3d 62 6f 57 bd 81 58 92 3d 4c 72 c5 3d
       0.09684952 -0.052596457 0.07145787 0.09640941
0002e0 0b 70 0d bd 82 28 ef 3d 16 fb 0e 3e fa 0f 4a bd
       -0.03453068 0.11677648 0.13962969 -0.049331643
0002f0 a7 94 38 bd c5 70 de bc 92 55 3e 3c bc f4 1d 3d
       -0.04506364 -0.027153382 0.011617081 0.038563475
000300 66 82 e2 3c 28 e4 18 3d 61 89 5b 3d 6e 63 18 be
       0.02765007 0.03732696 0.05359781 -0.1488168
000310 4e 9a 5a bd af 02 3f 3d 6b 6b 4f bd 51 74 8b 3d
       -0.053369813 0.04663342 -0.05063955 0.06809295
000320 0a 89 77 bd a6 0f e2 3d 02 6c 00 3b 37 36 0b bd
       -0.060433425 0.11038141 0.0019595628 -0.03398725
000330 68 f6 11 3d 0b f9 b3 3d b9 c0 90 be 20 e1 4d 3d
       0.035635382 0.087877356 -0.28272036 0.050263524
000340 3e ab a5 3d e0 fe ae 3c 65 28 0f be b1 2e ae 3d
       0.080893025 0.021361768 -0.13980253 0.085049994
000350 3c ac cf 3d f2 27 be bc 14 f0 d0 3d 15 54 45 bd
       0.10140273 -0.023212407 0.10202041 -0.04817589
000360 9d 3e 23 bd d0 e7 ee bc 7a 07 9f bc 61 e3 8b bd
       -0.039854635 -0.029163271 -0.019412745 -0.068304785
000370 60 e0 1b bd 36 e7 60 3d b8 e0 4c bd 86 fa 05 bd
       -0.038055778 0.054908 -0.050018996 -0.03270962
000380 fb 60 45 3d cb 66 87 3c 50 fe ae 3d 9a 2c 44 be
       0.04818819 0.016528508 0.085446 -0.19157639
000390 b2 d8 51 3d e7 2f 10 3d 33 b4 62 3d f9 b2 b1 bc
       0.051232047 0.035201933 0.055347633 -0.021691786
0003a0 92 07 58 bb 46 9b ae 3d 11 cc a1 bd 0b c9 8c 3a
       -0.0032963497 0.0852571 -0.07900251 0.0010741068
0003b0 61 8b e9 3c 48 24 4f 3d 7c da a8 3b 26 ff 03 bc
       0.028508844 0.05057171 0.0051529985 -0.008056438
0003c0 0b ca e3 3d 50 93 17 bc a0 7d a4 3d d8 46 ba bc
       0.11122521 -0.009251431 0.080317736 -0.022738859
0003d0 e8 f6 9d 3d 19 25 db 3d ae f6 93 3d 9b 07 f4 bc
       0.07713109 0.10700435 0.07224785 -0.029788783
0003e0 97 c6 96 3d 16 a2 35 3d 2c 42 eb bc 68 57 1b 3d
       0.07362097 0.04434403 -0.028718077 0.037925154
0003f0 41 77 28 bd e1 90 6f 3d 4c 0f aa 3d 1a f9 aa bd
       -0.041129354 0.058487777 0.08303699 -0.083482936

dense2.bias f4 [256]
000000 67 1e 4a 3e ab a7 dd 3d e7 ee d8 bc 56 24 fb 3e
       0.1973816 0.10822996 -0.026481105 0.4905116
000010 45 fe 00 3f 94 2c be 3e 6b 67 b4 3e 92 19 8f 3d
       0.50387985 0.37143385 0.35235152 0.06987299
000020 0e 40 8f 3e 03 11 8f 3c 83 33 91 3e 14 17 8d 3e
       0.27978557 0.017464167 0.28359613 0.2755667
000030 52 fa fc 3e 05 f6 a1 3e c5 81 b5 3e 0d 6f a3 3e
       0.4940973 0.3163301 0.3545057 0.31920663
000040 aa 3a 40 be 14 a0 7a 3e 41 77 cb 3e 5e fb 0d 3f
       -0.18772379 0.24475127 0.3973942 0.5546168
000050 b3 fa 84 3e b4 1d 04 3f 7a 73 d2 3e 9f 72 9f 3e
       0.25972518 0.51607823 0.41103727 0.31142136
000060 78 d2 9c 3d 97 b8 b2 3e 51 47 bb 3d 12 3f ba 3d
       0.07657331 0.34906456 0.09144462 0.09094061
000070 ff 64 06 3f ad 8e ff 3e 64 d9 f3 3e f2 07 85 3e
       0.5249786 0.4991354 0.47626793 0.25982624
000080 d7 56 0e 3f e8 4d de 3e 14 ee 10 3e 10 52 fe 3d
       0.5560126 0.43418813 0.1415332 0.12417996
000090 b1 7a bf 3e 98 9d 3c 3e 5f 4a 6c 3e 7d 8c 5b 3e
       0.37398294 0.18419492 0.23075245 0.21440311
0000a0 16 24 08 3f 16 bb 84 3e 6d 18 ea 3e 03 02 55 3e
       0.5318006 0.25923985 0.4572176 0.20801549
0000b0 0f 6c ec 3e 67 e2 15 3f 40 b0 05 3e 8c 8b 1c 3e
       0.46176192 0.5854859 0.13055515 0.15287608
0000c0 c5 7e ae 3e 11 f4 80 3d 9b a9 03 3f 84 1e 8c 3e
       0.34081092 0.06296552 0.5143067 0.27367032
0000d0 64 d9 5a 3e a7 4a b4 3e 38 db 6a 3d 37 13 11 3f
       0.2137199 0.35213205 0.05733797 0.56669945
0000e0 e5 18 07 3f 24 78 0a 3f cb 7b a0 3e 81 08 24 3e
       0.5277236 0.5408957 0.31344447 0.16018869
0000f0 6c 7a ad 3e ef 40 8e 3e 13 5a fa 3e cd 6e ed 3e
       0.33882463 0.27783915 0.48896846 0.46373597
000100 47 a9 b4 3e 86 1d f0 3e af 21 a8 3d 88 11 bf 3e
       0.35285398 0.46897525 0.0820955 0.37318063
000110 eb 69 cb 3e b6 7a 09 3f e8 65 e1 3e 2d ab f2 3d
       0.39729246 0.5370287 0.4402306 0.118490554
000120 c0 01 f6 3e 31 51 10 3e ff 93 ff 3e 58 67 00 3e
       0.4804821 0.14093472 0.499176 0.12539423
000130 2d d9 73 3e e9 ee 3b 3e 91 16 9b 3e f9 a4 b9 3e
       0.23813315 0.18352856 0.30290654 0.36258677
000140 8c 66 f4 3d b0 94 c1 3d 34 6b aa 3e 32 cb 43 3e
       0.11933622 0.09452188 0.33284914 0.19120482
000150 f1 27 97 3e b2 16 96 3e a9 db 17 3f c4 7c b6 3e
       0.2952266 0.2931419 0.5931955 0.35642064
000160 f4 44 62 3e 09 af 7f 3e 34 5f 78 3e f8 a2 c9 3e
       0.22096616 0.24969114 0.24255067 0.39382148
000170 02 3b b0 3e 63 f3 ca 3e 19 c3 43 3e 2b 44 a2 be
       0.3442002 0.39638814 0.19117393 -0.31692633
000180 12 63 9c 3e 4e f2 c1 3e 28 ab f4 3e de 4e e4 3e
       0.30544335 0.37880176 0.47786832 0.4459142
000190 cd 95 40 3e c2 b0 96 3e af 54 a8 3e c4 ab f8 3e
       0.18807144 0.2943173 0.32877108 0.48568547
0001a0 48 a6 9c 3e a2 26 0c 3f e9 93 b6 3e 60 f6 bc 3e
       0.30595613 0.5474645 0.35659721 0.3690672
0001b0 89 83 d9 3e c2 b6 a2 3e d1 df 49 3e f5 94 27 3e
       0.42483166 0.31780058 0.19714285 0.16365416
0001c0 44 7f c1 3e 64 e1 c3 3e 4a d4 18 3e e6 ba be 3e
       0.37792408 0.38257897 0.14924732 0.37251967
0001d0 96 16 b7 3e bb 43 f6 3d 9f 0c 10 3f 71 44 06 3f
       0.3575942 0.12024637 0.5626926 0.52448183
0001e0 09 ad b6 3d bb ae 88 3e 0a 31 bb 3e 2c 71 00 3f
       0.089197226 0.2669581 0.3656085 0.50172687
0001f0 bb 50 69 3e 29 62 8f 3e e7 ce a4 3e 85 28 c3 3e
       0.22784702 0.28004578 0.32189104 0.3811685
000200 dc a5 87 3e b4 a8 66 3e 83 3c 8a 3e 4d 13 27 3e
       0.26493728 0.22525293 0.26999292 0.16315956
000210 5f ef f0 3d 19 7a d0 3e f6 98 a8 3e 78 77 ac 3d
       0.117644064 0.40718153 0.329292 0.08421224
000220 60 21 04 3f 45 2c fa 3e 62 6f 5f 3e 75 44 5f 3e
       0.51613426 0.488619 0.21819833 0.21803458
000230 56 f7 ab bd 09 74 ac 3e cb 3d 95 3d a6 ec 0f 3e
       -0.08396785 0.33682278 0.07287177 0.14055118
000240 a4 66 c4 3e fe d7 0b 3e e0 38 ac 3d a3 67 68 3e
       0.3835956 0.13656613 0.084092855 0.22695784
000250 76 3d 7a 3e 95 2d 67 3e a9 90 99 3e 38 75 7d 3e
       0.24437508 0.22575982 0.2999318 0.24751747
000260 81 6f c5 3e 56 a2 dc 3e 2a 1c da 3e 9b 6a fc 3e
       0.38561633 0.43092602 0.42599612 0.49300084
000270 9c 2a 4d 3e 51 b0 a7 3e 07 01 54 3e ac 02 92 3e
       0.20035785 0.32751706 0.20703517 0.28517663
000280 55 1b 7b 3e 1e 25 e5 3e 2c e6 e8 3e fe 0b e3 3e
       0.24522145 0.4475488 0.45488107 0.44345087
000290 98 75 80 3e 6c 23 5e 3e f0 c7 c2 3e c1 d6 a2 3d
       0.25089717 0.216932 0.38043165 0.07951117
0002a0 ee f0 e7 3e 48 22 fc 3e 13 c6 82 3e 9a 92 b6 3e
       0.45301002 0.49244905 0.25541744 0.35658723
0002b0 f8 ca 50 3d d7 18 e4 3e ec d7 b6 3e 16 96 ad 3e
       0.050974816 0.445502 0.3571161 0.3390357
0002c0 7c c6 9d 3e 20 b7 f7 3e 56 4f 91 3e cf af 96 3e
       0.30815494 0.483819 0.2838084 0.29431006
0002d0 9d 23 03 3e c3 94 cd 3e aa 23 7c 3e 60 39 e1 3e
       0.12806554 0.4015256 0.2462298 0.43989086
0002e0 46 76 08 3e 9d fe 44 3e cf da a3 3e 10 7b 7f 3e
       0.13326368 0.19237752 0.32002875 0.24949288
0002f0 29 14 8a 3e 86 12 7c 3d 9f 99 e7 3d 8c 07 f2 3e
       0.26968506 0.061541103 0.11308598 0.47271383
000300 91 83 e7 3e fa d5 e1 3e a2 fb a0 3e bb cf 80 3e
       0.45217565 0.44108564 0.3144198 0.25158486
000310 1e 83 bb 3e 0d f8 0d 3f 02 d6 74 3e 3b 0e fd 3e
       0.36623472 0.5545662 0.23909763 0.4942492
000320 40 73 bd 3e 0b e6 8d 3e 28 46 7b 3e 33 9b f2 3e
       0.3700199 0.2771457 0.24538481 0.47384033
000330 13 12 4d 3e e2 1a 34 3e 5b 47 0d 3f aa eb 9b 3e
       0.20026426 0.1758838 0.55187005 0.30453235
000340 e9 b2 16 3e e4 a2 85 3e 5b 8e eb 3e d4 06 91 3e
       0.14716686 0.26100838 0.46007046 0.28325522
000350 c1 fa 09 3e 84 97 08 3f 55 bf a3 3d 07 5d a6 3e
       0.13474561 0.53356194 0.07995478 0.3249285
000360 c7 50 3a 3e 56 eb ac 3e 89 b3 87 3d 10 6d 04 3f
       0.18194877 0.33773297 0.066260405 0.51728916
000370 8e 4e bb 3e 65 94 98 3d f3 49 6e 3e 1f 4c f0 3e
       0.3658337 0.07450179 0.23270397 0.46933076
000380 b4 23 ef 3e 22 77 55 3d 61 ed 0a 3f e2 fe aa 3e
       0.46706927 0.052115567 0.5426846 0.33397585
000390 c8 87 f0 3e db 2f 3f 3e ec f8 e6 3e 30 aa fe 3e
       0.46978593 0.18670599 0.45111787 0.49739218
0003a0 cb 7e 01 3f e1 ea f0 3e 95 27 cb 3e 1b 8f a1 3e
       0.50584096 0.47054198 0.39678636 0.31554493
0003b0 b2 53 e8 3e 70 f0 a9 3e 38 62 37 3e d8 d3 08 3f
       0.45376354 0.33191252 0.17908561 0.5344825
0003c0 40 11 e5 3e 76 89 ed 3e bd bf c2 3e 02 11 bb 3e
       0.44739723 0.46393937 0.3803691 0.36536413
0003d0 cc 93 41 3e 75 d4 73 3e a6 cc 58 3e cc 35 9e 3e
       0.18904036 0.23811515 0.21171817 0.3090042
0003e0 9d 5b 56 3e 45 c7 57 3e b9 09 e5 3e d9 ca 1c 3f
       0.20933385 0.21072109 0.4473398 0.6124702
0003f0 3a 4a 6b 3e f9 c9 13 3f a9 cf c1 3e ff b4 c3 3e
       0.22977534 0.5773006 0.37853745 0.38224027

dense3.weight f4 [128, 256]
000000 1c 30 6f bd c3 1d ad bd 27 96 d6 be 72 61 90 bc
       -0.05839549 -0.08452942 -0.41911432 -0.01762459
000010 0d 93 9e 3d 6c 3d 55 3d ba d4 37 3d 5f 9b 82 3d
       0.077428915 0.05206053 0.044880606 0.06377291
000020 8b 76 fd 3c 97 e4 d1 3c ca c5 6a bd 19 fa 2e 3d
       0.030940315 0.025621695 -0.057317533 0.04271898
000030 49 6e c0 3d 43 27 1e bd 4e 08 86 bd 12 fc ea 3c
       0.09396035 -0.03861166 -0.06544553 0.02868465
000040 65 51 9f be 12 73 e0 bc 60 a2 09 bd 58 ff 9c bc
       -0.31116787 -0.02739862 -0.03360212 -0.019164726
000050 a7 df 44 bd c6 6a 62 3d 20 15 68 3c 74 43 a7 3c
       -0.048064854 0.05527761 0.014165193 0.020417906
000060 b3 f1 bc 3c 20 9e 46 bc 0a 4d 38 3d db e3 a2 bc
       0.02306447 -0.012122661 0.044995345 -0.01988404
000070 66 7a 20 bd 4d b5 0c bc 06 49 9e 3d 87 b9 1a bd
       -0.03917923 -0.008588147 0.07728772 -0.03777459
000080 41 12 79 bc 46 b4 82 bd 73 2b a2 bd 41 bb 82 3d
       -0.015202106 -0.06382041 -0.079184435 0.06383372
000090 ad 67 66 3d 42 e6 53 bd 5b 51 ef bc 76 64 c0 bc
       0.056251217 -0.051733263 -0.029213598 -0.023485404
0000a0 c5 a7 6c bc 70 bf bb 3c a7 4f 01 3b dc 06 39 3d
       -0.014444296 0.022918433 0.0019731314 0.045172557
0000b0 da e3 4a 3d 11 34 b7 bc f0 30 94 3d 2b 0c a3 bd
       0.049533702 -0.022363694 0.072358966 -0.07961305
0000c0 90 a7 b3 bd 9a ed 9e be e7 88 5b 3d 9c 4d 5a bd
       -0.087721944 -0.3104065 0.053597357 -0.05329667
0000d0 7b 1a 6a bd 03 ff b9 3d b9 fc 5e bd be 3b ce 3d
       -0.05715416 0.09081843 -0.054440234 0.10069989
0000e0 dc 9b ab 3d 01 30 ed 3c e3 5a a7 bb b8 60 77 bb
       0.08379337 0.028953554 -0.00510727 -0.0037746858
0000f0 74 a1 dc 3b 56 db b7 3c e2 26 20 3d 9d 15 bb 3b
       0.006733114 0.022443455 0.03909958 0.0057093636
000100 3a 06 9e 3d ec 06 94 3d 07 36 58 bd 37 1e 7a bc
       0.077160314 0.07227883 -0.0527859 -0.015265993
000110 5c 9c 28 3b 8a 7a e0 3b d8 1c de bc 71 4f ba bc
       0.0025727963 0.0068505453 -0.027113363 -0.022742959
000120 e6 fd 90 3c 19 21 95 3d 7d a3 92 3c d6 1e 1f 3d
       0.017699193 0.072817035 0.017900223 0.038847767
000130 66 0d 4b 3d 4b 93 19 bb d4 bf 2f bd 2b f9 22 3d
       0.049573325 -0.002343374 -0.04290755 0.039788406
000140 39 21 52 3c c7 74 5c bd 6e 1e 87 bd 94 98 e5 3b
       0.012825304 -0.053822305 -0.06597601 0.007006714
000150 04 0a 22 bc ca 9e 0a bd 56 10 29 3d b2 68 ee bb
       -0.009890083 -0.03384284 0.041275345 -0.0072756642
000160 a0 65 87 3d 03 93 80 3c 41 2e 5b bd fb e8 a6 3b
       0.0661118 0.0156951 -0.053510908 0.0050936914
000170 97 3a 38 bd 1a 0a 62 3d 66 ec 97 3d f3 8f 53 be
       -0.04497775 0.055185415 0.07418136 -0.20660381
000180 18 7f 20 3c 5d f3 40 bc 57 d3 50 3c d0 08 aa 3d
       0.0097959265 -0.011776772 0.0127457 0.08302462
000190 84 a8 e3 3c 02 f3 01 3e 95 26 68 3d 0d 18 cf bd
       0.027790315 0.12690356 0.05667742 -0.10112009
0001a0 88 c0 a4 3b d4 47 82 bc 01 2a 5a 3c 02 4e 0b bd
       0.0050278343 -0.015903391 0.013315679 -0.03400994
0001b0 60 ee a3 3c 51 a3 70 bc 00 b4 60 bd 0e fe ae bd
       0.020011127 -0.014687375 -0.05485916 -0.08544551
0001c0 ac df 45 bd 60 93 bc 3c 01 c5 0d be da 2a 2c 3d
       -0.048309013 0.023019493 -0.13844682 0.042033054
0001d0 42 e0 2c bd 40 b3 40 3c 66 85 cf 3c b7 13 98 3c
       -0.042206056 0.0117614865 0.025332164 0.018564088
0001e0 57 2b 43 bd 02 48 a0 3c 70 7f 0f 3e 85 af ef bc
       -0.047648754 0.019565586 0.14013457 -0.029258499
0001f0 21 ec 0e bd 3f 52 95 3d 8d ca 9d bc 97 ba 1b bc
       -0.03489316 0.07291078 -0.019261623 -0.009504936
000200 9c 0b ad 3c bd 41 ab bd 20 be 66 3c c2 63 de 3b
       0.0211237 -0.08362148 0.014083415 0.0067867944
000210 64 17 4c 3d be 59 cb bc 2e a5 e2 3c 97 9d 25 3d
       0.049826995 -0.024823066 0.027666654 0.040433493
000220 34 91 9e 3d 9e 5d 8b 3c 57 aa b2 3c 2d 0f 68 3d
       0.07742539 0.017012414 0.02180974 0.056655098
000230 5b ea 28 3c 63 13 8f bc 68 ca 8d bd 13 fb 96 bd
       0.010309781 -0.017465299 -0.069233716 -0.07372107
000240 2a ad e9 3c 7e b4 91 bc 9c fd 31 3c a7 70 05 3d
       0.028524954 -0.01778626 0.010863688 0.032578137
000250 de 3c fa ba 15 ca 77 bd c8 07 e0 3b fd 93 f0 bc
       -0.0019091626 -0.060495455 0.006836865 -0.029367441
000260 75 e9 a4 3d 1d bf 33 3d a7 31 84 3b e2 25 8c 3c
       0.08052341 0.04388343 0.0040342393 0.017107908
000270 40 2c 1f bd 5c 99 5f bd ca fe 86 3d e9 ed 28 3d
       -0.03886056 -0.054589614 0.06591566 0.041242514
000280 04 49 21 bd 53 e9 3d bd 36 3f 19 3d eb b9 91 3c
       -0.039376274 -0.046365093 0.0374138 0.017788848
000290 9a 20 74 3d 84 af 93 bc 31 19 9d bd 37 57 da 3c
       0.059601404 -0.018028028 -0.076708205 0.026652915
0002a0 28 42 e7 3d 19 c2 b0 bb ef 01 3e bd b9 fa 3a 3d
       0.11291915 -0.005394232 -0.046388563 0.045649264
0002b0 da fd 9a bd 96 69 65 3b fb 21 45 bc cd 0d 9e 3c
       -0.075679496 0.003500556 -0.012032027 0.01929369
0002c0 a7 e1 7e 3d a6 f1 49 3d ca f3 b9 bb 45 cb 10 bc
       0.062226918 0.04930272 -0.005674814 -0.008837526
0002d0 b1 4b 2b bc 6c 24 ef bb 7a 0b be 3c 1a 89 23 3e
       -0.010455058 -0.007298043 0.023198832 0.15970269
0002e0 33 70 12 bb ad 5d 4c 3d 35 a9 19 bd 94 de 96 bd
       -0.0022344708 0.049894024 -0.037514884 -0.07366672
0002f0 a3 8f fe bc 3a 12 7e bd f8 7c 94 3d 7d 42 f3 3b
       -0.03107435 -0.0620291 0.072503984 0.0074236975
000300 c4 fb 06 3d 8e 3f 86 bd 92 b0 46 3d 24 d1 22 be
       0.032954946 -0.06555091 0.048508234 -0.15900093
000310 98 6e 04 bc 43 28 70 3d e8 73 2b bd 0b f5 63 3d
       -0.008083008 0.058632147 -0.041858584 0.055653613
000320 4c 2e 50 bd 8b 40 b7 3c 86 59 d2 3d 3e 8c 59 3d
       -0.050825402 0.022369644 0.102709815 0.05311226
000330 1d b8 31 3d 83 c1 e4 3c 23 e7 c0 3d b5 b4 3a bd
       0.043388475 0.027924305 0.09419086 -0.045582492
000340 8a 5d 50 bd 98 c8 68 3d 9f e0 80 3d 7b d1 ea 3d
       -0.050870456 0.056831926 0.06292843 0.114657365
000350 ed 37 24 3d be 5c 23 bb ef 77 d2 3c de d3 18 3d
       0.040092397 -0.0024927105 0.025691954 0.037311427
000360 3c 71 86 bd b7 6f e3 3c 5e 8e 02 bd 51 f5 1a bc
       -0.065645665 0.02776323 -0.031874053 -0.009457902
000370 8a ba 15 bd e5 07 89 3d 26 4d ea bc 31 30 a9 3c
       -0.03655485 0.06690959 -0.02860124 0.020652862
000380 41 bb c6 3c 30 cc c6 3c 15 f4 77 3d 29 2a 20 bd
       0.024259211 0.024267286 0.06053551 -0.039102707
000390 28 86 5b bd fb bd 9c bd a9 68 5b 3d 95 5e 8e 3d
       -0.05359474 -0.076534234 0.05356661 0.06951634
0003a0 85 9b d6 3c 07 71 f8 3c bc c9 66 3d 50 1e 65 bd
       0.026197204 0.030327333 0.056344733 -0.05593711
0003b0 fa 7f a7 3d 27 ff cc 3c 05 7f 66 bd a6 bf d1 3c
       0.081787065 0.02502401 -0.05627348 0.02560408
0003c0 d0 f9 15 3b 36 94 fa ba 79 88 b6 bc af e6 96 bc
       0.0022884496 -0.0019117657 -0.022281872 -0.018420545
0003d0 24 82 fa 3c b2 f7 3e 3c d4 d9 44 3c c4 2c fc bb
       0.030579634 0.011655735 0.012014825 -0.007695766
0003e0 03 ac 41 3d 35 e3 37 3d fd 14 87 3b c3 c9 a1 3d
       0.047283184 0.044894416 0.004122375 0.07899811
0003f0 74 45 b1 3c 8f 01 60 3d 2f df 52 bd d8 fb 03 bd
       0.021639563 0.054688986 -0.051482376 -0.0322226

dense3.bias f4 [128]
000000 15 04 2d 3f 7d 34 35 3f a8 be e4 3c fa 2f ca be
       0.67584354 0.70783216 0.027922943 -0.39489728
000010 68 27 3b 3e b3 79 fb bc 3e 95 12 3f 49 02 29 3f
       0.18276751 -0.03069768 0.57258976 0.6601911
000020 bd 1a 14 3f 2f 71 27 3f 7f 9b 12 bd d1 88 83 bd
       0.578533 0.6540708 -0.035792824 -0.0642258
000030 90 b6 42 3f 20 80 0c 3e 3b 24 4b 3f c3 1f 31 3f
       0.7605982 0.13720751 0.7935216 0.6918909
000040 1b 43 47 3f 7b a7 33 3f 00 ae 2a 3f fa 16 4c 3f
       0.7783677 0.7017743 0.6667175 0.7972256
000050 e1 63 44 3f 7a e4 91 3e a6 c6 00 3e b0 be 3b 3e
       0.76714903 0.28494626 0.12575778 0.1833446
000060 e5 fe 48 bc bd 13 21 3f ff 36 e8 bc d2 d0 2c bd
       -0.012267803 0.62920743 -0.028346537 -0.042191334
000070 c1 cc ac 3e 60 b6 df 3e 19 25 6d 3e 37 c1 97 3e
       0.33749965 0.4369383 0.23158683 0.296396
000080 f0 f4 83 bc 2c 65 47 3f d7 c5 f7 3d af 76 7e bc
       -0.016108006 0.7788875 0.12098282 -0.015531226
000090 5c d0 2d 3f 00 64 05 3f c1 c4 c9 bc 77 aa 31 3f
       0.67896056 0.5210571 -0.024629952 0.69400734
0000a0 70 f2 25 3f fe 4a 38 be 1c 3b 00 3e 76 d9 41 3f
       0.64823055 -0.17997357 0.12522548 0.75722444
0000b0 84 4a 95 3e f6 09 78 3e 9f 27 16 bd af de 71 bd
       0.29158413 0.2422255 -0.03665888 -0.05905026
0000c0 e7 f0 6d bd c6 fb 08 3f 5f 3f 3a 3f 36 bb 1c be
       -0.05809107 0.53509176 0.72752947 -0.1530579
0000d0 c0 0d cb 3e f1 8f 28 3f 41 c9 df 3d 61 80 22 3f
       0.39658928 0.6584464 0.10927058 0.6347714
0000e0 1f 91 33 3f a2 31 2e 3f 4c fd 32 be 69 d3 46 3f
       0.7014331 0.68044484 -0.17479438 0.77666336
0000f0 77 3a d1 3e 15 35 34 3f 9c 8a 89 bd 4f bc a8 bc
       0.40864918 0.70393497 -0.06715891 -0.020597605
000100 d2 a3 4c 3f 60 15 32 3e 31 8c fb 3e 86 b2 c3 bc
       0.7993747 0.17390966 0.49130395 -0.023888838
000110 b5 04 6c 3d 00 38 2a 3f 19 a7 45 3f 66 ea 40 3d
       0.057621676 0.664917 0.77208096 0.04709854
000120 41 39 9c be 50 5b 41 3f dd 68 8f 3d 74 3b 46 3f
       -0.3051243 0.75529957 0.07002423 0.7743447
000130 a0 ff 43 3f 6b ee ca 3e ce 98 2f 3f 8c 9d b1 3e
       0.7656193 0.39635023 0.68592536 0.3469051
000140 5a 4e 7f bd 3a 88 38 3f ee 8d 0d be c8 1c 8e bd
       -0.06233058 0.72082865 -0.13823673 -0.06939083
000150 ce 46 1f 3d 04 d7 d5 bc 60 c7 19 3f 50 19 33 3f
       0.038885884 -0.026103504 0.6006985 0.699605
000160 34 a0 31 3f 83 8b 49 bd 47 16 9d 3d 81 f1 44 3f
       0.69385076 -0.049205314 0.07670265 0.76931006
000170 c3 7b 11 3f c5 7b 44 3f 15 f4 24 3f 57 ad 40 3f
       0.5682947 0.7675136 0.6443494 0.75264496
000180 e1 68 48 3f 79 45 2e 3f 97 79 2f bd 57 cf 45 3f
       0.7828503 0.68074757 -0.042840566 0.772695
000190 26 03 e5 3c b8 c1 24 3e 10 19 76 bc af 67 47 3f
       0.027955603 0.16089523 -0.015020624 0.77892584
0001a0 9a ff 42 3f 52 8d 2b 3f af b9 41 3f 52 82 2f 3f
       0.7617127 0.6701251 0.75673956 0.6855823
0001b0 86 df 39 3d a5 c5 45 3f 0a af 3e 3f 70 ab 03 3e
       0.045379184 0.77254707 0.7448584 0.12858367
0001c0 4b 12 4b 3f 4c b8 39 bd a8 51 3c bd e0 70 26 bd
       0.7932479 -0.045341775 -0.04597631 -0.04063499
0001d0 78 82 4f 3f c2 66 3e 3f 2b 98 d7 bc a0 31 ff bc
       0.81058455 0.74375546 -0.026317677 -0.031151593
0001e0 b6 cb 9e 3e ec 85 43 3f cf 3f d1 bc 00 af 35 3e
       0.31014794 0.76376224 -0.025543122 0.17742538
0001f0 80 59 40 bd 41 89 27 3f 2e 18 28 3f 83 89 86 bd
       -0.046960354 0.6544381 0.65661895 -0.06569197

output.weight f4 [1, 128]
000000 f5 eb d1 3c 81 33 52 3d 85 28 2e bb d6 40 81 be
       0.025625208 0.05131865 -0.0026574444 -0.25244778
000010 e4 2a 0c be 8e 90 d2 ba 67 6f b1 3c 4d ab fe 3c
       -0.13688236 -0.0016064809 0.021659566 0.031087542
000020 31 a3 3a bf 5f b4 51 3d f1 e6 1d bd 50 90 2f bd
       -0.7290526 0.051197406 -0.03855032 -0.042862236
000030 e8 e2 df 3d d4 32 09 be a6 d5 b2 3d a9 cf 90 3d
       0.10931951 -0.13398296 0.087321565 0.07070858
000040 5a d6 b9 3d 89 59 a4 3d dc ad b0 3d ec 2c 7f 3d
       0.090740874 0.0802489 0.08626911 0.0622987
000050 e2 e9 c0 3d 7a 7b a4 be f2 e6 dd bd 2c e7 89 be
       0.094196096 -0.32125455 -0.10835065 -0.26934183
000060 08 25 99 be e9 a2 ae 3c 47 e0 9b bd a2 9a 5c bd
       -0.29911065 0.021317916 -0.07611137 -0.053858407
000070 d8 1a 15 bf ce d3 47 bf c7 4d 6d be 9b 02 b2 be
       -0.58244085 -0.78057563 -0.23174201 -0.34767613
000080 f2 a8 1a bb 5b 39 1a 3d 52 39 6e bd e2 68 39 bc
       -0.0023599234 0.037652355 -0.058160134 -0.01131651
000090 c6 2d c8 3c 89 5f 40 bf b3 a2 e3 3b b5 73 a8 3d
       0.024435889 -0.75145775 0.0069468855 0.08225194
0000a0 e6 61 33 3d 2a a0 89 3e 6b 79 ff bd fc 01 ce 3d
       0.043794535 0.26880008 -0.124743305 0.10058972
0000b0 fc 83 c2 be dc 8e c2 be 39 b2 c6 bc b1 8a 82 bd
       -0.3799132 -0.37999618 -0.024254905 -0.063741095
0000c0 13 e0 02 be 77 a4 bc 3c b2 f5 63 3d 6a 08 16 bd
       -0.1278079 0.023027642 0.055654235 -0.036629118
0000d0 2b d8 3b bf d0 dd 9f 3c f4 22 0a be df e3 b6 3d
       -0.7337672 0.019514948 -0.13489896 0.08930182
0000e0 ab 84 d1 3d a1 5f c6 3c 86 17 1b 3f b4 21 4f 3d
       0.102303825 0.024215521 0.6058277 0.05056925
0000f0 d5 8b 89 3c 6f d9 ad 3d 81 17 86 3c fa 84 c7 bc
       0.01679031 0.08488738 0.01636863 -0.0243554
000100 2e fa 9c 3d 6b e7 35 be 61 ff 3d bf dd 15 5e bc
       0.076649055 -0.1776406 -0.742178 -0.013555017
000110 f5 b5 26 bd 01 7e 96 3d 79 9d b0 3d a7 54 3e bc
       -0.04070087 0.07348252 0.086237855 -0.011616862
000120 8e d5 29 be 9b df 9b 3d dd 89 4f bd 25 d3 41 3d
       -0.16585371 0.07611009 -0.050668586 0.047320504
000130 00 c4 9b 3d 8e 46 db be 7f b2 c9 3d 27 c6 b9 be
       0.076057434 -0.42827266 0.098484986 -0.3628399
000140 83 1b 98 bd cd cd 92 3d 62 17 4b 3e 36 76 6a bd
       -0.074271224 0.0716816 0.19833139 -0.05724164
000150 a6 45 9b bc ce 8a 21 ba 28 60 83 3c 92 f4 1f 3d
       -0.01895411 -0.0006162346 0.016037062 0.0390516
000160 38 86 6e 3d 7e a1 6c bd c4 94 c9 bd 78 2d ce 3d
       0.05823347 -0.0577712 -0.09842828 0.10067266
000170 87 29 ae 3c 06 af dc 3d c4 26 3b 3d 3a 4a 94 3d
       0.021260036 0.107755706 0.045691267 0.0724072
000180 8e 28 28 3d e9 49 cb 3d 20 92 2a bd 34 58 99 3d
       0.0410543 0.099262066 -0.041643262 0.074875265
000190 50 21 2e bd aa 59 37 be 91 e4 50 ba eb e7 c2 3d
       -0.042512238 -0.17905298 -0.00079686294 0.09516891
0001a0 7f e8 9f 3d ad c8 71 3d e0 25 c2 3d c6 7b 8a 3d
       0.07808017 0.05902927 0.0947988 0.06761889
0001b0 5a 70 75 bd 70 09 2c 3d 4e 06 98 3d be 50 fa bd
       -0.0599216 0.042001188 0.074230775 -0.122224316
0001c0 a0 17 4a 3d 55 22 33 3d 9e ab 36 bc 9d 0c e3 bc
       0.049338937 0.043733913 -0.011149315 -0.027715975
0001d0 73 ab f2 3c c8 07 3f 3d 4e 72 af be 06 02 d9 bb
       0.029622769 0.04663828 -0.34266895 -0.0066225557
0001e0 82 7a d6 be b3 08 52 3d 4d 13 e3 bc a3 b1 19 be
       -0.4189034 0.051277827 -0.027719164 -0.1500917
0001f0 5c 46 d5 bb d4 cc 88 3d b1 e9 dc 3c 13 a9 8b bc
       -0.0065086316 0.06679693 0.026966901 -0.017048394
