models/modelo_deep_learning.pth (torch, 281347 bytes, 7 tensors)

dense1.weight f4 [128, 25]
000000 0a 48 f8 3c d8 8d 15 3e 84 f0 8f 3d 32 ec bb 3a
       0.030307788 0.1460489 0.070282966 0.001433736
000010 c5 3f 9a bc 1e 66 5e bc c1 ef 9d 3c b5 7b 6b 3d
       -0.018829236 -0.013574151 0.019279363 0.057491023
000020 43 93 25 bd e0 b9 37 3c f5 a8 37 bb d4 da 1e 3d
       -0.040423643 0.01121375 -0.002802429 0.03878291
000030 01 40 fb 3c 3b e1 82 bc 25 db 59 bd ef 60 b5 bd
       0.030670168 -0.015976539 -0.053187508 -0.08856379
000040 3f 2e f3 3d c3 b6 20 bd f2 2e c3 bc d8 23 9d bb
       0.11874055 -0.039236795 -0.023826096 -0.0047955327
000050 6f f2 61 3c 44 81 f9 3b a4 0b 5f 3d 3a ac f9 3b
       0.013790711 0.0076142866 0.05445446 0.007619408
000060 e6 45 56 b9 43 77 34 bd 02 c5 f7 3d f7 d8 34 be
       -0.0002043467 -0.04405905 0.12098123 -0.1766089
000070 e4 8a 3e 3d 41 6d 50 be f6 4f fa bd 62 5d b4 3c
       0.046519175 -0.20354177 -0.122222826 0.022017185
000080 46 0c c6 3b 60 6a e2 bd e4 60 08 be 79 43 ca 3c
       0.0060439436 -0.11055446 -0.13318211 0.024690377
000090 d0 11 ee 3c 77 07 3f be 7a e0 a0 be cf fb 27 3d
       0.029061228 -0.18655191 -0.31421262 0.041011628
0000a0 b4 ab f7 3c 78 5d 85 bd 09 58 c2 3c 58 16 77 3c
       0.030233242 -0.065119684 0.023723619 0.015081011
0000b0 3a b9 4f 3c de 52 87 bc da f5 16 bc cc 02 87 bd
       0.012678439 -0.016519006 -0.009213889 -0.0659233
0000c0 e4 e4 d9 bc 97 b1 9d 3b e2 20 36 bd ea ca c3 3d
       -0.026598401 0.00481243 -0.044464953 0.09560187
0000d0 b7 f8 5b 3d d2 79 8a 3b a6 c0 28 bd 57 17 e6 3c
       0.05370399 0.004225948 -0.04119935 0.028087301
0000e0 00 b3 9d 3c c9 99 01 3d 97 ea a0 3c 48 cd 01 bd
       0.019250393 0.0316408 0.019643111 -0.031689912
0000f0 10 1e 54 bd ba ab c4 3d d8 08 13 bd 9f f7 bc 3c
       -0.051786482 0.09603067 -0.035897106 0.023067294
000100 0d 5c 47 bd 3d 5a 08 bd df c8 c4 3c 0c 1f 91 bd
       -0.04867177 -0.033289183 0.024021564 -0.07086
000110 5d d9 da bc 7b 3d ef bc df 18 54 3d d8 65 10 3d
       -0.026714975 -0.02920412 0.05178153 0.035253376
000120 ba e6 5f 3e 12 89 2f bd 35 ce a2 bb 54 90 8a bd
       0.21865359 -0.04285533 -0.0049684294 -0.0676581
000130 e4 3b 9c 3d 08 3e dc bd 72 63 98 3d c3 4b 3f bc
       0.07628611 -0.10754019 0.07440843 -0.011675778
000140 2c 26 33 3e 5e 5c 17 3c 8e 60 90 3c a4 f1 0d 3e
       0.1749503 0.009238331 0.017624166 0.1386171
000150 0d 7d bc bc 46 d9 25 bd 76 06 69 3d 77 01 43 3d
       -0.023008848 -0.04049041 0.056890927 0.04760882
000160 8c cd 64 bd 75 c9 95 3c c7 f0 59 3c 7f 9f e8 bc
       -0.055860087 0.018284539 0.013302035 -0.028396366
000170 e3 76 0d bd 7a 4c f6 3a e8 a7 c4 b8 e2 15 14 3d
       -0.034537207 0.0018791102 -9.377283e-05 0.03615368
000180 6c 1f 84 3c 71 2f 0d 3e 84 e6 97 3c c5 5e 54 bc
       0.016128264 0.13787629 0.018542536 -0.012962048
000190 7b b0 6d 3b bd 1e 8d be c5 7d ac bc 52 53 74 3c
       0.003626852 -0.27562514 -0.021056065 0.014912443
0001a0 c1 33 eb bd 0f 6a c6 bd 31 4e b9 3b a2 e5 38 be
       -0.11484481 -0.09688198 0.005655073 -0.18056348
0001b0 67 82 bb bd ce 42 32 3c eb dd bc bc e7 15 04 be
       -0.09155732 0.010880185 -0.023055037 -0.1289898
0001c0 0a 9d cb bc 86 5f 87 bb 62 84 4a 3d a4 f1 a3 3d
       -0.024855155 -0.0041312603 0.049442656 0.08005074
0001d0 31 9f 08 bd 86 5c b5 3d cc 95 39 3d e1 42 c4 3c
       -0.03335494 0.08855538 0.045308873 0.023957672
0001e0 a3 e1 76 bd 65 7f eb bc 32 8a ba be 78 76 44 b9
       -0.060273778 -0.02874727 -0.3643356 -0.0001873615
0001f0 33 6a a3 3b 59 5a 24 3d 90 ff 2d be 79 9e a8 be
       0.004987025 0.040125225 -0.1699202 -0.32933405
000200 d5 50 b8 bd 74 dd 7b be a0 52 18 bd f2 d1 4e bc
       -0.089997925 -0.24596196 -0.037188172 -0.012623297
000210 31 84 9b be 59 7f cb 3c 50 cf 02 bd e1 e0 b7 bb
       -0.30374292 0.024840998 -0.03193599 -0.0056115245
000220 41 35 54 be cb 2f 2f 3c c6 72 5e bd 53 75 62 3d
       -0.2072344 0.010692547 -0.054308675 0.05528767
000230 58 40 b5 3d 58 32 57 bd 40 ff c6 3c 1c dc b6 ba
       0.08850163 -0.052538246 0.024291635 -0.0013951096
000240 7b 4f ba bc 59 e8 75 bc eb 38 16 ba 73 5b 94 be
       -0.022742977 -0.015009009 -0.00057305273 -0.2897602
000250 e3 6c ec 3d 2c ef b1 3b 7e 28 2d bd 2d d2 0a 3e
       0.11544206 0.005430123 -0.042274944 0.13556738
000260 60 99 fc 3d b7 82 d3 bd 8e ee 29 3e 6f 23 25 be
       0.123339415 -0.10327666 0.16594908 -0.16126798
000270 5c 4c a8 bc cf d7 41 3c ff 30 93 3c e6 33 b8 3d
       -0.020544223 0.011831238 0.0179677 0.08994274
000280 86 68 94 3d be 91 cb bc 84 00 f4 3c 17 c4 1a 3c
       0.07246499 -0.024849769 0.029785402 0.0094461655
000290 4d f7 8f 3d c7 e5 eb 3d 55 d9 11 be ed 49 b2 39
       0.07029591 0.11518436 -0.14243062 0.00034005885
0002a0 d5 0e c1 3c dc 41 61 3c d8 1a c3 3c e5 76 a6 bb
       0.023566643 0.013748612 0.023816511 -0.0050800913
0002b0 38 c5 36 bb 6a 8c c8 3c 2b 3b a2 3a 11 af 10 bd
       -0.0027888548 0.024481017 0.0012377253 -0.035323206
0002c0 7a 0b e3 bd f1 c6 1b 3d fb c2 a5 3d 1d 0c 65 bd
       -0.11086173 0.038031522 0.0809383 -0.055919755
0002d0 cd e5 e4 3d ce e1 92 bb e8 34 dc 3c 9c 4c ae 3c
       0.111766435 -0.0044824844 0.026880696 0.021276765
0002e0 43 80 81 bd 82 09 03 3e 65 5a e8 bd 72 49 ac 3b
       -0.06323292 0.12796596 -0.113453664 0.005257779
0002f0 48 4b 39 bd e6 42 ac bc a6 09 87 3c 2a 4e 47 bd
       -0.04523781 -0.021027993 0.016484093 -0.048658527
000300 3b f0 98 bd 85 31 06 bd c7 af 32 3c 3d 5b 48 3d
       -0.07467695 -0.03276207 0.010906166 0.048915137
000310 e3 45 cd 3c 60 8a 79 3e 04 a6 83 3c 42 4e a5 3b
       0.025057739 0.24369192 0.016070373 0.0050447294
000320 1d 43 b1 bd 7f e0 37 3d 81 a3 17 3e f1 25 8c 3d
       -0.08655379 0.04489183 0.14808466 0.06843174
000330 1a 42 11 3e e9 d8 00 3e 80 31 86 3d 3f dd 95 3e
       0.14185372 0.12582745 0.0655241 0.2927036
000340 8f 51 0e bc 7b 73 ed bb 3c 65 a1 3d 17 12 da 3d
       -0.008686437 -0.0072464324 0.07880637 0.106479816
000350 2b fa 19 3d 69 a7 ef bb 95 a9 c9 3b 2e f9 55 3d
       0.037592094 -0.007313658 0.006154249 0.05223959
000360 a6 b9 87 bd 9e f1 0f 3d fb a9 03 3c fc df 10 bb
       -0.066272065 0.035142533 0.008036132 -0.0022106161
000370 c3 72 95 bc 77 8b ba 3c c4 70 30 bd cb 06 4a bc
       -0.0182432 0.02277158 -0.04307629 -0.012330721
000380 aa 21 34 3c f1 76 68 3d 8d 98 89 3e e2 c5 c4 3d
       0.010994354 0.056754056 0.268742 0.09608056
000390 71 39 91 bc 95 5f 6a 3e c0 e5 01 3e e6 c4 a0 3d
       -0.017727586 0.22888024 0.12685299 0.078500554
0003a0 7b be b1 3e 4b 6f 83 3b 4d d2 b3 3c 25 fd 21 3e
       0.34715638 0.00401107 0.021950865 0.15819223
0003b0 5e 22 e8 3d 39 d6 c8 bc b6 f1 b8 bc e1 c2 91 bd
       0.1133468 -0.024516212 -0.022576194 -0.07117248
0003c0 61 1b b0 bd 9a b7 a4 3d bd 16 9a bd 7c a4 f3 bc
       -0.08598972 0.08042832 -0.07523868 -0.029741518
0003d0 34 1e f8 bc 14 71 9c 3d c0 1f 74 3b 1f 9e 98 3e
       -0.03028784 0.076387554 0.003725037 0.29808137
0003e0 58 df a9 3d d7 e3 74 bc 8d e2 07 bd c1 1c 2c bd
       0.082945526 -0.014946899 -0.03317504 -0.04201961
0003f0 cb 3c 9e 3d e3 c9 2e 3b 73 ce 6e bd db f7 9f 3d
       0.07726439 0.0026670627 -0.058302354 0.078109466

dense1.bias f4 [128]
000000 31 2a 89 bd 57 c6 1c bf e6 32 37 be d0 96 4a be
       -0.066975005 -0.6124014 -0.1789051 -0.19784093
000010 77 bd 50 bf af 2c f1 bd bd 54 7c be d9 b6 2b bd
       -0.815391 -0.11776101 -0.246417 -0.041922424
000020 17 a4 15 be c7 8f 2a 3b 26 84 14 be 35 b0 09 bf
       -0.14613377 0.002602564 -0.14503536 -0.53784496
000030 e0 35 14 be 3d 98 61 be 75 24 8c 3d 7e 50 32 bd
       -0.14473677 -0.2203073 0.06842891 -0.043533795
000040 3b e0 be bc c3 a3 e2 bd 3a ab 84 be eb a5 1f be
       -0.02330028 -0.11066391 -0.25911885 -0.15590636
000050 bd bd 01 bd 7f 8a 94 be 93 aa 67 be b9 95 2f bf
       -0.03167509 -0.29011914 -0.22623663 -0.68587834
000060 a6 ce 99 bd 1e e5 86 bd bc bc a2 be e0 62 b8 be
       -0.07510118 -0.065866694 -0.31784618 -0.36012936
000070 0c e4 41 bd ba bc ae bd 05 bb 86 bd 12 28 20 bd
       -0.047336623 -0.085320905 -0.0657864 -0.039100714
000080 95 2d 7b be fd 53 9b bd 99 de 89 be 70 cc 34 bf
       -0.24529107 -0.07584379 -0.2692764 -0.70624447
000090 22 61 fd bc 31 0c 85 be 22 33 4b be 5b be f3 bd
       -0.030930106 -0.25985864 -0.19843724 -0.11901542
0000a0 d4 51 3a be d6 eb 1b bf b4 c2 bf bd 82 cf b4 bd
       -0.18195277 -0.6090673 -0.093633085 -0.088286415
0000b0 91 6b 3c be 83 aa 53 be 9e 76 f1 bc b9 9f 5d 3d
       -0.18400408 -0.20670514 -0.029475506 0.0541074
0000c0 c3 55 61 be 40 da 39 be 6b 35 c2 bc b2 b2 e6 be
       -0.22005372 -0.18149662 -0.023707112 -0.4505821
0000d0 cf 85 25 be 09 ea b8 be 52 06 54 be fa b0 94 bd
       -0.16164325 -0.36116055 -0.20705536 -0.07260318
0000e0 fe f3 bc 3d 5d 7b 71 3c eb fd 49 be ff c0 b5 3b
       0.09226225 0.014738885 -0.19725768 0.0055466886
0000f0 80 b1 78 be 68 e3 43 be 6b b9 c8 bd ff 40 64 be
       -0.24286461 -0.19129717 -0.09800991 -0.22290419
000100 aa 00 de be b4 25 95 bb 79 69 27 bf 36 70 01 3d
       -0.43359882 -0.0045516137 -0.65395314 0.031601153
000110 d1 93 bc 3c 43 3c 03 be e4 f1 bd 3c 6f 8c 54 bd
       0.023019703 -0.12815957 0.023186632 -0.05189174
000120 ed 54 46 be 50 1b bb bd 60 c4 83 bd ea 59 51 be
       -0.19368334 -0.09136069 -0.0643394 -0.20444456
000130 b2 a0 0c bf 1c 0e 34 bd f2 d9 9e bd 2b 54 2c bf
       -0.549327 -0.04395877 -0.077564135 -0.6731593
000140 98 ae 6f be e5 42 82 bd d7 4b c1 bd f2 5c 8f bd
       -0.23406446 -0.06360415 -0.094382934 -0.0700015
000150 3e 8b 08 be 48 b9 41 bd db 29 cf 3d dc e8 80 3d
       -0.13334367 -0.04729584 0.10115405 0.062944144
000160 8d 23 ab bc 49 ec 24 be db 1e 1b bd 0c c7 0b be
       -0.020890975 -0.1610576 -0.037871223 -0.13650149
000170 9b 7e 01 bf 16 d6 59 bc c5 05 00 3e b5 cf 4c be
       -0.5058381 -0.013295671 0.12502201 -0.20001109
000180 ce a8 71 bd 3e a6 26 be d8 26 98 be 15 d2 b0 bd
       -0.058998875 -0.16274354 -0.29717135 -0.0863382
000190 a0 ca 61 3d ad 20 d3 be af a2 90 bd 16 e6 3d bf
       0.05512488 -0.41235867 -0.070622794 -0.7417921
0001a0 27 d6 0d be d2 3e f7 bd 3f 93 80 be 94 e5 4a be
       -0.13851224 -0.12072529 -0.2511234 -0.1981414
0001b0 f4 eb 3b bd d4 0a 87 bd 75 53 92 bd c7 8a 83 3d
       -0.04587932 -0.06593862 -0.071448244 0.06422954
0001c0 84 8a 16 bf ac ce e1 bd 4c 3a 52 3e e4 f6 07 be
       -0.5880511 -0.11025748 0.20530051 -0.13277775
0001d0 51 0d 9a be 9a f9 4d be 5f 6c 2d be f0 b3 80 bd
       -0.30088285 -0.20114747 -0.16935872 -0.0628432
0001e0 93 d7 ad 3d e8 6f 30 bd 9c f1 45 be 95 0b 9b 3c
       0.08488383 -0.043075472 -0.19330448 0.018926421
0001f0 75 0a 20 be 86 76 0f be f8 f8 df 3d 6e 83 1e bd
       -0.15628989 -0.14010057 0.10936159 -0.03869956

dense2.weight f4 [256, 128]
000000 9c 61 94 3d 86 59 e2 bd db 8b bf bc ab bf a0 3d
       0.0724518 -0.110522315 -0.023382118 0.07849058
000010 8d c7 06 be 88 a0 a3 be 45 9f d0 3d 2b 3d 87 bd
       -0.1316206 -0.31958413 0.10186628 -0.06603464
000020 9e d6 24 3d 6d dc ac be 47 3f ea 3d df 65 5f be
       0.040243737 -0.33761922 0.114378504 -0.21816204
000030 db 3d df bd e8 69 98 be 24 ce 30 bb 8e 88 2a bc
       -0.1090047 -0.297683 -0.0026978338 -0.010408534
000040 f2 aa 5c bd b3 73 b0 3d 49 1c a9 3d b7 18 08 3d
       -0.053873964 0.08615818 0.08257348 0.033226695
000050 1c 0b ef 3c 76 db c4 3d bd 29 4a bd ce b1 d9 bc
       0.029180102 0.09612171 -0.04935621 -0.026574042
000060 9a 04 86 3d 2b 7e 8b 3d 01 e1 8f be d0 ba 8c be
       0.065438464 0.06811174 -0.28101352 -0.27486277
000070 df ea 62 bd 6f 99 80 be 8d f3 84 3d c5 a9 8a 3d
       -0.05539977 -0.2511706 0.06491766 0.06770662
000080 9e a9 99 bc 7b 53 c6 bd cd 9a 8e bc b6 f1 21 be
       -0.018757638 -0.096838914 -0.0174078 -0.15814862
000090 e8 4d cf bd 50 b5 07 be be a2 c2 bc 8a a9 12 3e
       -0.10122281 -0.13252759 -0.023759242 0.14322487
0000a0 ec a5 f2 bc 17 be 25 be 64 d0 09 3e 13 41 be 3c
       -0.029620133 -0.16185795 0.13458401 0.02322439
0000b0 86 17 1d 3c 0e f8 9c 3d 66 95 47 be 61 24 fc bd
       0.009588128 0.076645 -0.19490585 -0.12311626
0000c0 86 5a d7 3d ac 97 3c 3c ad 75 bb 3b 1a 13 67 be
       0.10515313 0.011510771 0.005720815 -0.2256588
0000d0 10 fb c7 bd e0 ff 46 be 20 af 58 bd 9b 50 01 be
       -0.09764683 -0.19433546 -0.052901387 -0.12628405
0000e0 df 7f 7f 3c f8 de 35 3e 0e 51 e6 3c 0b ed 2d be
       0.015594452 0.17760837 0.028114822 -0.16984956
0000f0 0e 23 23 bd 3a 7e 4c bc c3 f8 f2 3b 0a d6 45 3d
       -0.039828353 -0.012481267 0.0074149086 0.048299827
000100 7c f7 42 bd 6a 4a f3 3d a8 eb be 3c a7 1f e8 3d
       -0.0475993 0.11879428 0.023305729 0.11334162
000110 35 29 da ba 6a e5 5e bd 81 86 f7 bd a9 96 9b bd
       -0.0016644361 -0.054418005 -0.120862015 -0.075970955
000120 92 51 1f be 0a a5 11 be 52 da 67 be fb 3c a6 3d
       -0.1555846 -0.14223114 -0.22641876 0.081171
000130 1b 2f 63 be 9f 89 5f 3c 95 0b 3a be 27 06 1c be
       -0.22185938 0.013643651 -0.1816848 -0.15236722
000140 1f d6 bc bd af f2 43 3c eb 75 aa bd 0a 0d 05 3e
       -0.09220528 0.011959716 -0.08323272 0.12993255
000150 7a 1e b7 bd 58 cd f1 bd 97 77 8c bd cf 91 3c bd
       -0.0894136 -0.11806744 -0.068587475 -0.04603749
000160 d9 38 a4 3d 99 8a a9 3d 1b fb 77 3d fb 58 66 bb
       0.08018655 0.082783885 0.060542207 -0.0035148251
000170 76 57 23 bd d8 9f 5b 3c b1 5d be bd ae 05 49 3c
       -0.03987833 0.013404809 -0.09295214 0.012269421
000180 52 da 09 3d b4 c4 4b bd 4f f8 10 3d 81 a0 ca 3c
       0.033655472 -0.049748138 0.035393056 0.024734737
000190 b5 3a 7d 3d eb 7d c7 3d ce 60 29 bd 6e c9 bd bd
       0.061823566 0.09740814 -0.041352086 -0.09266935
0001a0 9a 40 d8 3d 1a 6f 1a 3e d7 51 dd bc c7 a0 81 3d
       0.10559197 0.15081444 -0.027016563 0.06329494
0001b0 fb 35 15 3d 17 88 89 3c 67 1e c5 3d 5c 4b ac 3b
       0.036428433 0.016788526 0.096249394 0.005258007
0001c0 bd a5 b3 bd 3b c0 5b 3c a0 57 aa bd 68 6f d9 3b
       -0.087718464 0.0134125305 -0.083174944 0.006635595
0001d0 b8 20 42 bc 05 b6 2b 3d 07 f5 89 3d 72 48 d3 bb
       -0.011848621 0.041921634 0.067361884 -0.006447845
0001e0 1c e8 ba 3b e8 6c be bd d1 c4 ba be 52 54 06 3e
       0.005703939 -0.09298116 -0.36478284 0.13118103
0001f0 2c 2d d2 bc 25 d9 f9 bc e0 f0 e2 bd 6b 6f 04 3e
       -0.025656305 -0.03049905 -0.110810995 0.12933128
000200 d5 82 ad bb 36 34 08 be ec b1 8f 3d 22 f7 b8 bc
       -0.0052951374 -0.13301167 0.07016358 -0.02257878
000210 37 4a a2 be 04 05 49 ba 2f 6b 69 3d 61 84 be 3d
       -0.31697246 -0.0007668289 0.056986984 0.09302593
000220 d0 83 37 3c 2e 50 e2 3d 3c b1 4a bc b6 12 47 be
       0.01120086 0.11050449 -0.0123713575 -0.19440731
000230 4e f6 c3 3d 4e 52 e5 bc 4b 08 6b 3c 09 2a 2d 3d
       0.09568463 -0.027993347 0.014345239 0.042276416
000240 61 df be bc 90 31 83 bd 92 0b fb 3d 7f 35 d5 ba
       -0.023299875 -0.06405938 0.12258066 -0.0016266553
000250 01 ee c9 bc 6c 78 56 bc fe d2 2f 3d 4d aa be bd
       -0.024649622 -0.013090234 0.042925827 -0.09309826
000260 82 47 33 bd f6 5a 96 3b f2 ae ce bc a6 3e 5a bd
       -0.043769367 0.00458848 -0.025229905 -0.053282402
000270 fb b0 15 3b 01 f1 c9 3b 33 b4 28 3b c1 fe af 3d
       0.0022841084 0.006162763 0.0025742173 0.08593512
000280 1c c2 9e 3d e5 80 78 3d dc a7 b5 bc f1 11 c2 be
       0.07751867 0.0606698 -0.022174768 -0.37904313
000290 f2 0f 3d 3d e8 2f dd 3c 73 7f 85 3b 92 48 83 3c
       0.046157785 0.027000383 0.004074031 0.016025815
0002a0 70 b3 7d bb 57 a8 48 be aa 54 82 bd 87 de ed 3d
       -0.003871169 -0.19595467 -0.06363805 0.11614709
0002b0 9e 92 c3 3d 26 14 bf 3d e9 34 ca 3b 25 f2 8b bc
       0.095494494 0.09330015 0.006170858 -0.017083237
0002c0 a3 be 42 3d de 20 f5 3d 79 7b b2 3d f1 14 b4 bd
       0.047545087 0.119691595 0.08714957 -0.08793057
0002d0 17 7b f4 3d 20 c0 8c bd e8 66 21 bd b5 6f 49 bd
       0.1193754 -0.068725824 -0.03940478 -0.049178798
0002e0 e1 11 b7 bc fa cc 20 3d da 7a 93 3d e7 79 45 3d
       -0.022347393 0.03925798 0.072011665 0.04821196
0002f0 e3 ba 9a bd ad cb 7d 3d 7a 28 00 3d 36 65 20 3c
       -0.07555177 0.06196182 0.0312886 0.009789756
000300 e3 17 74 3c 94 e9 b3 3c a0 25 82 bd a5 7f ae 3d
       0.014898273 0.021961965 -0.06354833 0.0852044
000310 83 6c 12 bc 0e 17 b1 3d dd 63 21 bd 37 91 81 3c
       -0.008937004 0.086469755 -0.039401878 0.015816314
000320 7b c3 90 bc 61 ff 62 3d 74 85 ab bb 3a 4d 16 3d
       -0.017671337 0.05541933 -0.0052344147 0.036694743
000330 f1 66 83 be dc 1d c5 3d 18 42 f4 ba 5f 29 da 3b
       -0.25664476 0.09624836 -0.001863542 0.006657764
000340 88 79 5b 3d 0f 35 ee bb 8b 20 8a 3c cf 2a 4c 3d
       0.053582698 -0.0072695087 0.01686122 0.049845513
000350 22 bc 06 3d 0b 4e 9e 3c 29 bb 13 bc dd a1 b1 3d
       0.03289426 0.019324323 -0.00901679 0.08673451
000360 fa 42 71 3c 06 f4 85 3d 4f 0a 09 bc e7 f3 6f 3d
       0.014725441 0.065406844 -0.008364274 0.058582213
000370 3a e6 1a be 10 13 b7 3b 3a 76 90 ba ea 6d 7b 3b
       -0.15126887 0.005586989 -0.0011021562 0.0038365074
000380 61 bb d8 3d 5c e6 21 bc 53 29 56 bb b1 c2 a4 3d
       0.10582615 -0.009881582 -0.003267844 0.08044947
000390 38 55 57 3c 82 80 8e bc e2 6c bf bb 80 2e 94 be
       0.013142876 -0.017395262 -0.0058418373 -0.28941727
0003a0 56 57 22 3d ca 60 cc 3d 44 a3 78 3d d5 93 34 3d
       0.03963407 0.099793985 0.060702577 0.044086296
0003b0 86 4e 09 3d e1 75 85 bb 43 87 26 3d 81 5b 79 3c
       0.03352215 -0.00407289 0.04065634 0.01521957
0003c0 b7 50 9c be 32 52 32 3b 7a a8 ba 3c 9a 6a b9 bc
       -0.3053033 0.0027209637 0.022785414 -0.02263384
0003d0 85 a9 2b 3d 53 2b 29 bd d7 90 66 3d 21 ae c9 3d
       0.041909713 -0.041301083 0.056290474 0.098476656
0003e0 e4 b0 da 39 d1 99 5b 3d 53 08 9c bc 30 e2 1a 3d
       0.00041711994 0.053613488 -0.019046938 0.037813365
0003f0 c2 c9 d1 3d 2b c4 ce bc ce 6c af 3b a6 a3 00 bc
       0.102435604 -0.025240025 0.0053535467 -0.007851517

dense2.bias f4 [256]
000000 e1 c5 96 3e da 76 a6 3d 44 cd 45 3d cf 8a d6 3d
       0.29447845 0.08128138 0.04829146 0.104756944
000010 cb 65 cc 3e 5f 42 55 3d 64 21 fd 3e fe cd a6 3d
       0.39921412 0.05206525 0.49439538 0.08144759
000020 3e ca 01 3e 72 31 dd 3e 6b fe 93 3e 25 21 33 3e
       0.12674806 0.43201786 0.28905043 0.17493112
000030 36 d2 e0 3e 4b 5e b8 3e ca 35 22 3e 1e e2 8f 3d
       0.43910378 0.3600944 0.15840831 0.0702555
000040 60 9b ec 3d bb 26 e3 3e d6 83 43 3e 81 34 74 3e
       0.11553073 0.44365487 0.1909326 0.23848154
000050 ea f5 0e 3f a2 10 00 3f 78 07 c3 3e ad 20 b7 3e
       0.55843985 0.5002538 0.38091636 0.35767117
000060 de 40 5a 3e 20 75 3e 3e a4 bd 3f 3e 51 da 87 3e
       0.21313807 0.18599367 0.18724686 0.2653375
000070 84 9e 6e 3e 7c 84 96 3e 43 c1 8b 3d 9e 27 b7 3e
       0.23302656 0.29397953 0.06823971 0.35772413
000080 d4 8c df 3e 17 b1 fa 3e 2a 94 25 3e 66 cb 6f 3e
       0.4366213 0.48963234 0.16169801 0.23417434
000090 40 5f 60 3e 67 a2 84 3e 45 10 91 3e 86 f7 f1 3e
       0.21911335 0.25905153 0.28332725 0.47259158
0000a0 e6 30 00 3f 01 21 32 3e 66 e4 a3 3e 59 45 e7 3e
       0.50074613 0.17395402 0.32010192 0.45170096
0000b0 9d 7e 18 3e eb b7 bf 3d 2d 31 95 3e ba 19 ec 3d
       0.14892049 0.093612514 0.2913908 0.115283445
0000c0 c7 d2 6d 3d ab c0 96 3e 02 0d a0 3e c3 0f b2 3e
       0.05806234 0.2944387 0.31259924 0.3477765
0000d0 86 85 f4 3e 7b d5 83 3d 06 c6 5d 3e c9 80 0b 3f
       0.4775812 0.064372025 0.21657571 0.54493386
0000e0 20 57 d4 3e 98 bd 7a 3d 52 80 e9 3e 13 83 2b 3e
       0.4147272 0.061215967 0.45605713 0.1674922
0000f0 c6 ee 29 3e 25 90 be 3e 94 76 91 3e 80 3b fa 3e
       0.16594991 0.3721935 0.2841078 0.4887352
000100 29 7e e1 3e 9d d7 9f 3e 73 6b f3 3e e5 fb b2 3e
       0.44041565 0.31219187 0.47542915 0.34957805
000110 dc 3a d1 3e f9 4b 19 3f 3e 91 cf 3e 07 d1 04 3f
       0.4086522 0.5988155 0.40540498 0.5188145
000120 7a 6b bc 3e cf 4a 04 3f eb e4 4f bb c6 d6 03 3f
       0.36800748 0.5167665 -0.003172214 0.51499593
000130 53 a9 7c 3d fb c0 25 bc 3e 7a 39 3e d2 b1 51 3e
       0.061684918 -0.010116811 0.18113038 0.2047799
000140 00 5c b8 3e 78 ae 9b 3e 98 73 75 3e 01 8c d5 3e
       0.3600769 0.30406547 0.23969877 0.41708377
000150 a6 29 87 3e 7f d3 38 3e 43 c5 02 3f 00 00 a7 3e
       0.26398963 0.1804943 0.5108225 0.32617188
000160 45 ff cd 3e 76 c5 f4 3e b0 6e 9c 3e 79 80 15 3e
       0.40233818 0.478069 0.30553198 0.1459979
000170 2f 88 cb 3e 8a 7d 86 3e 72 90 f4 3e 7d fa f3 3d
       0.39752337 0.26267654 0.47766453 0.11913011
000180 c7 a8 b3 3e 76 49 d9 3c 39 50 e5 3d de c2 0e 3e
       0.35089704 0.026524287 0.11196942 0.13941523
000190 fc 8f 8b 3e e9 43 bb 3e 68 b0 94 3e 67 37 38 3d
       0.2725829 0.3657525 0.29040837 0.04497471
0001a0 42 f9 9a 3d 83 e0 06 3f 11 cc ca 3e db 17 fb 3e
       0.075670734 0.5268633 0.39608815 0.49041638
0001b0 be 76 d2 3e ca ad 06 3f a6 cb cb 3c 68 2c 7c 3e
       0.41106218 0.5260893 0.02487738 0.24626315
0001c0 96 bf f7 3e ed ed 29 3e 28 7a 80 3e e2 da ec 3d
       0.48388356 0.16594668 0.25093198 0.11565186
0001d0 af f2 53 3e 86 f0 cf 3e 28 85 4c 3e 8c 1f 6f 3e
       0.20698045 0.40613192 0.1997267 0.23351878
0001e0 87 89 05 3e 98 46 55 3e 41 1e 03 3f ca 6b d9 3e
       0.13040744 0.2082771 0.5121804 0.4246505
0001f0 4b 6c eb 3e d4 6e bd 3e f4 56 b7 3e 11 8e 04 3f
       0.45981058 0.36998618 0.35808527 0.51779276
000200 ff db d4 3e 83 72 02 3f ad 2c 17 3f 5b 22 e0 3d
       0.41574094 0.5095598 0.59052545 0.10944053
000210 b3 a5 97 bb fa fc f1 3e fd bd 32 3e e9 11 25 3d
       -0.004627907 0.47263318 0.17455287 0.040300284
000220 27 da 9f 3e bd e5 e4 3e 50 7c 98 3e bc f9 04 3f
       0.31221125 0.44706526 0.29782343 0.51943564
000230 11 de c3 bd c9 dc f7 3e be 91 e5 3e e2 57 a1 3e
       -0.0956384 0.48410633 0.44837755 0.31512362
000240 47 bb 27 3e 93 2b 3f 3e c3 1a a9 3d 8b 17 5d 3e
       0.16380034 0.18668966 0.082570575 0.21591012
000250 4a ff 6c 3e 3f e6 d7 3e 11 c8 74 3e 0f e1 fe 3e
       0.2314426 0.4216785 0.23904444 0.4978108
000260 07 bd fe 3e 82 47 d4 3e 1e d9 b3 3e 13 27 0c 3f
       0.4975359 0.41460806 0.35126585 0.5474712
000270 1d ed d3 3d 45 0d 0d 3c 35 64 5d 3e 95 ed 1e 3d
       0.1034796 0.008609121 0.21620257 0.038800795
000280 a7 99 fb 3e 5c 1b 11 3f 06 6a 9b 3e a0 07 82 3e
       0.49140665 0.5668237 0.30354327 0.25396442
000290 0c 98 26 3d 9f 44 d9 3e 14 2d fc 3d e6 3e b4 bd
       0.040672347 0.42435166 0.123132855 -0.088010594
0002a0 10 6e 8f 3e db 7b 04 3f a7 e5 8c 3e 34 89 82 3e
       0.2801366 0.5175149 0.2751896 0.25495303
0002b0 7e 62 cb 3e e3 7e 8c 3e b4 96 ec 3e 9c 01 c0 3e
       0.3972358 0.27440557 0.46208727 0.37501228
0002c0 3c 10 9f 3d 58 22 b2 3e d4 5a 62 3e ee 6a a4 3e
       0.07766768 0.34791827 0.2210496 0.3211283
0002d0 c8 0c 9e 3d 8b 9b 5a 3e 6c 3b 03 3f d9 a2 e6 3e
       0.077172816 0.21348397 0.51262546 0.45046118
0002e0 03 c7 cd 3e 67 cb e1 3e 7b 5f fd 3e 60 fd f8 3e
       0.40190896 0.44100496 0.49486908 0.4863081
0002f0 6b 74 3a 3e 6b 98 c9 3e 68 ef 1d 3e f3 d2 b8 3e
       0.18208472 0.39374098 0.15423357 0.3609844
000300 a7 1e d3 3e d3 3b d2 3e 44 92 d0 3e f3 e1 15 3f
       0.41234323 0.41061267 0.40736592 0.58547896
000310 98 bb b8 3e e4 4d 9e 3e 4f f2 f5 3d 60 8d e8 3e
       0.36080623 0.309188 0.12009107 0.4542036
000320 9c 7f f2 3c 4c 06 e3 3e 0b 35 cd 3e 4b d8 8a 3c
       0.029601865 0.44340742 0.4007953 0.01694884
000330 6a 75 f9 3e 85 22 2f 3e f5 da 99 3e 35 e0 44 3e
       0.48722392 0.17103012 0.30049863 0.19226153
000340 69 50 7d 3d 19 5a ea 3e d8 39 a8 3d 72 e5 cb 3e
       0.061844263 0.45771864 0.08214158 0.3982349
000350 95 8e 21 3e 32 e1 ab 3e ef 91 f6 3e e1 d1 20 3e
       0.15777047 0.33570248 0.48158213 0.15705062
000360 6e ef df 3e f4 c9 08 3f 2d 0e f7 3e d2 8a cf 3c
       0.43737358 0.53433156 0.48253003 0.02533475
000370 95 85 41 3e 77 f9 d3 3e 72 69 ed 3d f4 2e a2 3e
       0.18898614 0.41401264 0.11592378 0.31676447
000380 a1 ae bf 3e e6 5d 8c 3e 87 38 fa 3e ef 71 97 3e
       0.3743792 0.2741539 0.48871252 0.29579112
000390 cd e5 12 3e 09 d4 c8 3d 15 01 87 3e ce b1 a0 3e
       0.14345475 0.098060675 0.26368013 0.31385654
0003a0 d2 44 db 3e d4 22 38 3e 1e 7a 92 3e 6a ac 76 3e
       0.42825943 0.17982036 0.28608793 0.24089208
0003b0 1f 5e cc 3e 18 e5 f7 3e 6f aa c2 3e 68 b9 d5 3e
       0.3991556 0.48416972 0.38020656 0.41743016
0003c0 4e 8b b6 3d 82 de 39 3e 1b f8 95 3d f0 e8 0a 3d
       0.08913289 0.18151286 0.07322713 0.033913553
0003d0 11 72 f1 3e 99 00 e1 3e 5e 0d 02 3f 19 26 56 3e
       0.47157338 0.43945768 0.50801647 0.2091297
0003e0 cc c9 2a 3e 98 73 9c 3e b3 b8 99 3e 30 3e 03 3a
       0.16678542 0.3055694 0.30023727 0.000500652
0003f0 62 89 cf 3e 66 d6 8a 3e f6 5f 15 3c ac e2 91 3e
       0.40534502 0.27116698 0.009117117 0.2849325

dense3.weight f4 [128, 256]
000000 83 14 85 3b dc 8e 2a 3c 93 ae af bd df e4 cc bd
       0.004061283 0.010410037 -0.08578219 -0.10004591
000010 81 c0 0a 3d fa f9 d1 3c 61 f7 b7 3d e5 86 fc 3c
       0.033874992 0.025631893 0.08982731 0.030826041
000020 dd 11 30 bb 20 26 c8 bc fc fb 8a 3d 42 66 45 bd
       -0.0026866116 -0.024432242 0.067863435 -0.048193224
000030 c6 d6 cf bd b2 dc 50 bd 9d 39 31 3d 7a cd a1 bd
       -0.10148387 -0.05099172 0.043267835 -0.0790052
000040 f1 69 19 3c 16 1c da ba 2f 8e ab bc 6a 86 33 3d
       0.009363637 -0.001664045 -0.020941822 0.04382936
000050 4b d8 a5 3c 87 8e 5b 3d 07 4a 44 3d 50 88 07 3d
       0.020244738 0.05360272 0.04792216 0.033088982
000060 b9 43 df bc d7 1a 9d bb a1 28 07 3d a5 40 09 bd
       -0.027253972 -0.0047944593 0.03299773 -0.033508915
000070 76 1d e1 bd e5 6b a5 3b 8b 53 84 3c 44 4f ec bd
       -0.10991947 0.0050482624 0.016153118 -0.11538556
000080 9f eb 37 bd 44 34 9b bd ad 41 d3 3d 36 a8 a9 3c
       -0.04490244 -0.07578328 0.10315261 0.020710092
000090 55 88 52 3d 7d 42 50 bc 49 ec 6e 3d cc 3c 82 bd
       0.051399548 -0.012711165 0.058330808 -0.06359252
0000a0 6d 70 1e 3c f2 01 14 3d f4 8d ed 39 32 dc 0d bd
       0.009670359 0.036134668 0.00045309926 -0.034633823
0000b0 25 89 7f 3d ab b5 a6 bc dc 8b e3 ba f7 78 95 3d
       0.06238665 -0.020350298 -0.0017360407 0.07298463
0000c0 ca b7 14 3c b2 64 91 bd f7 61 25 3d c3 73 58 3c
       0.009077022 -0.07099284 0.04037663 0.0132111935
0000d0 1b 62 95 bc fe 64 2e bd c1 c9 81 bc fd 4a 47 3d
       -0.018235257 -0.042576782 -0.015843274 0.0486555
0000e0 5d 57 8a 3d cb 78 98 bd 00 3f af 3a 03 07 02 3e
       0.067549445 -0.074449144 0.0013370216 0.12697987
0000f0 8c 95 d1 bd 83 a9 30 bb 44 78 c3 39 d4 3f c2 3c
       -0.10233602 -0.0026956506 0.00037282903 0.023712076
000100 4c a4 d5 3d 23 0e aa 3d 4f e6 e7 3a 33 9c 9e bd
       0.10431728 0.083034776 0.0017692539 -0.077446364
000110 ea 91 90 bd 49 07 0a bd 9f 58 6c bd 04 94 85 bd
       -0.07059081 -0.033698354 -0.057701703 -0.06522372
000120 36 f9 72 bc 2d 2a 80 bb 1e 0a 5c bd dc 27 81 3d
       -0.014829924 -0.0039112777 -0.053720586 0.06306431
000130 8a f6 28 3d 4d 7d c3 bd 55 9e 1d bd 53 9a 0c 3d
       0.041250743 -0.095453836 -0.038481075 0.034326863
000140 4c 69 78 3d 49 1b 8d 3d c9 1b a7 3d f1 0e 0c bd
       0.060647294 0.0688997 0.081595965 -0.034193937
000150 c1 d3 4b bb e0 a2 5e bd e1 1c 85 3a b7 e0 c7 3c
       -0.0031101557 -0.05435455 0.0010155701 0.024399145
000160 fe aa 0d 3d 65 e4 03 bd d1 d2 69 3d 45 3a 42 bd
       0.0345869 -0.032200236 0.057085816 -0.04741885
000170 7a 5d 2e bd 37 0f e5 3c 36 18 7b bd 2e 1f 98 3c
       -0.042569615 0.027961357 -0.061302386 0.018569555
000180 a3 b6 b9 3c 09 10 a3 3d 1e 33 f5 3b 5b 97 9a 3d
       0.022670096 0.07962043 0.0074829003 0.075484
000190 fb fd 97 bc e9 07 4c 3c 9f 96 98 3c 10 37 94 3d
       -0.018553725 0.012453058 0.01862651 0.07237065
0001a0 e4 d8 1d bd e5 70 ab bd 6c c4 99 bd fb e4 f3 3b
       -0.03853692 -0.08371142 -0.075081676 0.007443068
0001b0 96 98 ac 3c 3a 3e 8c 3c 71 17 47 bc dd cb 9b 3c
       0.021068852 0.017119516 -0.012151585 0.019018108
0001c0 11 31 3a bc 94 f7 b8 ba d1 4f b6 bd 83 bc 29 bd
       -0.011364237 -0.001411187 -0.089019425 -0.041439544
0001d0 e2 64 86 3d 08 0c ae 3c dc 00 92 3d 44 9d 9c 3b
       0.065622106 0.021245971 0.0712907 0.0047794897
0001e0 ac af 92 3c 3f 00 fd 3c 45 0e 9c 3d 6a d5 0c 3d
       0.017906033 0.030883906 0.07619909 0.034383215
0001f0 c9 1f 8b 3d 1b a9 0d bd d4 16 b9 3d 05 b1 9a bd
       0.06793172 -0.0345851 0.09037557 -0.07553295
000200 71 db 8a 3d ae 83 8f bd 50 dd 27 3d 2e f4 ea bc
       0.067801364 -0.07007538 0.040982544 -0.028680887
000210 61 2d 4c 3d 99 dc 9b bd 82 94 5a 3d 46 66 23 bd
       0.049847964 -0.07610435 0.053364284 -0.039892457
000220 b4 fa c8 3c 9f 00 83 3c c6 23 58 3d 93 55 b1 3d
       0.024533607 0.015991507 0.05276849 0.086589
000230 ce 01 40 be 4b e0 65 3d 10 45 5e 3d ca 48 93 bd
       -0.18750688 0.056122106 0.054265082 -0.07191618
000240 87 60 58 bd 52 92 a1 3d 21 c6 58 bd 8b 05 99 bd
       -0.05282643 0.078892365 -0.052923325 -0.0747176
000250 17 eb 0a 3d ad e1 a3 3d e3 03 f5 3c ad ad a7 3d
       0.033915605 0.080020286 0.02990908 0.08187423
000260 ae 25 db bc 02 c9 1f 3d 16 29 e6 bc 70 2f 3c 3d
       -0.026751366 0.039010055 -0.028095763 0.045943677
000270 44 5c 1e 3c 05 4a e0 bd 28 3d 81 3d 38 4d 7d 3d
       0.0096655525 -0.10951618 0.06310493 0.06184122
000280 ab 42 f8 bb 27 3a a3 3d fe 43 87 bd 8b 9d a3 3d
       -0.007576307 0.07970076 -0.06604765 0.07989033
000290 0c ad 59 3d 00 73 cd 3b cd 0e 14 bd db 8f 6f bd
       0.053143546 0.0062698126 -0.036146928 -0.0584868
0002a0 01 a6 95 3c cd ed 09 bd 2f 84 45 bc 44 76 40 bd
       0.018267633 -0.03367405 -0.012055441 -0.046987787
0002b0 3f b7 de bc d8 e9 e1 3d df 50 a4 bb 35 47 b0 bd
       -0.027186988 0.1103093 -0.0050145234 -0.08607332
0002c0 d4 68 90 3d 8f 08 c4 3d a4 c3 84 3d a4 b4 b3 3d
       0.070512444 0.09571945 0.06482628 0.08774689
0002d0 bf 39 a7 3d 04 9f d3 3c 46 f6 9c 3d c9 ba 02 3d
       0.08165311 0.02583266 0.076641604 0.031916413
0002e0 6e 03 e9 bc ef 6c f7 3d 01 e3 46 bd fa 2f 6c bd
       -0.028444018 0.12081324 -0.04855633 -0.05766294
0002f0 18 2f ac 3d 95 2d a7 3c 8a b6 05 be 74 6a b6 3c
       0.0840742 0.020407477 -0.13057914 0.022267558
000300 fd 36 60 bc 52 41 f8 3b 2a 04 72 bd 1e e6 78 bc
       -0.013684985 0.007576146 -0.059086002 -0.015191583
000310 bb 24 86 bd a6 4a 98 3d df 22 3b bd 5d 39 41 3d
       -0.065499745 0.07436113 -0.045687553 0.047173847
000320 a3 61 27 bd a7 7b 1a bd 34 9c 8a 3c d9 83 81 3d
       -0.040864598 -0.03771558 0.016920187 0.06323976
000330 17 a4 fb 3b aa 08 27 be f5 74 19 3c 46 a8 de 3d
       0.007679473 -0.16311899 0.009366264 0.10871939
000340 9b e4 c4 3d 9c 61 03 3c 01 64 70 bd e7 71 d2 bd
       0.096139155 0.008018877 -0.05868912 -0.102756314
000350 15 9a 35 3d cb ed 25 bd dd b8 fe 3c 54 5e 54 bd
       0.044336397 -0.04050998 0.031094009 -0.05184777
000360 8d 0a 0a 3d 16 0c 1a bd a4 54 ae bc 8e 6b a8 bc
       0.03370147 -0.037609182 -0.021280594 -0.020559099
000370 10 a7 23 3d cd fa 99 3c b9 2c 3c bd a2 67 24 3d
       0.039954245 0.018796349 -0.04594109 0.040137894
000380 e4 b9 3b 3d 05 50 f9 bb 61 99 33 bd 15 fa 87 bd
       0.045831576 -0.007608416 -0.043847445 -0.06639496
000390 85 f2 1a 3b 07 e2 58 3d 7a f9 70 3c 09 0e 78 bc
       0.0023643088 0.05294993 0.014707917 -0.015140065
0003a0 e2 05 0e bd 49 d0 7e 3d 04 d5 cf 3c c8 21 ae bd
       -0.03467358 0.062210355 0.025370128 -0.08502537
0003b0 89 9d b5 bd ef 43 9a bd f2 4a 0d bd be db 23 3a
       -0.08867938 -0.075324886 -0.0344953 0.00062507007
0003c0 dc bc 25 bc fa c1 8a bd 3c 45 d5 bc 14 8f 16 3d
       -0.010115828 -0.06775279 -0.02603399 0.036757544
0003d0 0d 11 8a bc b9 6a 92 bd 14 9a be bd c3 8c 0a bd
       -0.016853834 -0.07149262 -0.09306732 -0.033825647
0003e0 75 2b bf bc 29 0f 13 bd 77 2b 06 be 48 52 69 bd
       -0.023336152 -0.03590313 -0.13102518 -0.056963235
0003f0 65 b2 92 bc 86 95 d2 bd b1 a1 06 3d f6 7b 3c 3d
       -0.01790733 -0.102824256 0.032869045 0.046016656

dense3.bias f4 [128]
000000 a5 30 4b 3f 9f 91 75 3f 83 2e 67 3f ac 65 04 3f
       0.793711 0.95925325 0.90305346 0.5171764
000010 76 68 97 bd 0f a8 03 3f 25 24 70 3f ae 7d 67 3f
       -0.07392971 0.5142831 0.9380515 0.90426147
000020 c4 02 58 3f 14 d9 36 bd 41 e5 69 3f 84 55 52 3f
       0.8437922 -0.044640616 0.9136544 0.82161736
000030 c9 4e 25 bd 33 97 66 3f 3a 80 0a bd e4 4a 4f 3f
       -0.04035834 0.9007446 -0.033813693 0.8097365
000040 14 58 53 3f ce 7f 5a 3f 8b 88 00 bc e6 5a 80 3f
       0.8255627 0.85351264 -0.007845054 1.002774
000050 c8 23 a0 3e 2d 76 05 3e 85 0e f0 3e 78 09 63 3f
       0.312773 0.13033362 0.46886078 0.88686323
000060 80 ca 66 3e 46 f1 56 3f d2 5c 77 3f 23 5b 18 be
       0.22538185 0.83961904 0.9662601 -0.14878516
000070 d1 8c 57 bd d8 7d 3a 3e 09 36 70 3f 41 fb ab 3e
       -0.052624527 0.18212068 0.9383245 0.3359013
000080 cd af 66 3f f8 84 5a 3f 1e f0 cf 3e 50 62 4d bd
       0.90112 0.85359144 0.40612882 -0.050142586
000090 81 5b 73 3f 0c ac 87 3e cb 58 54 3f 49 e7 51 3f
       0.950615 0.2649845 0.8294799 0.8199354
0000a0 bf 83 65 3f 3f 9b 72 3f fd 14 a3 3e 84 b8 6f 3f
       0.89654154 0.94768137 0.3185195 0.93640924
0000b0 47 8f 64 3f 05 f4 96 be a2 c7 15 3f f8 2c 68 3f
       0.89281124 -0.29483047 0.5850774 0.90693617
0000c0 93 0b 74 3f 4a a3 da 3e a3 43 b0 3e 40 cc 08 3e
       0.9533016 0.42702705 0.34426603 0.13359165
0000d0 a1 c1 01 bd e9 ad 18 bd fa bb 69 3f 9e 8c 35 3c
       -0.0316788 -0.03727523 0.91302454 0.011080889
0000e0 26 65 c5 3e 17 62 98 bc cb 49 a9 3e 5d 87 5c 3f
       0.38553733 -0.01860146 0.33064112 0.8614405
0000f0 69 83 b2 3e 19 c5 65 3e 22 5e 57 3f 40 63 57 3f
       0.34865883 0.22438468 0.8412801 0.8413582
000100 95 f6 4b 3f d5 38 56 3f 54 f5 51 3e 3b 27 5e 3f
       0.7967313 0.8368047 0.20503742 0.8677861
000110 d8 9c 65 3f 7f cb 55 bc 22 32 ab 3e 3e 9e 11 3f
       0.8969245 -0.0130490055 0.33436686 0.56882083
000120 98 cd 8a 3e 84 bb 7d 3f b3 7f 6d 3f 20 35 10 bb
       0.2710998 0.9911425 0.9277298 -0.0022004321
000130 c9 c4 64 3f c3 16 52 3e 98 68 5e 3e 4d cf 5b 3f
       0.8936277 0.20516495 0.21719587 0.8586319
000140 52 2f 6c 3f 6a 4b 57 3e 3a 12 ba bc 2f 5a 3d 3e
       0.92259705 0.21024862 -0.02271377 0.18491434
000150 9b a4 72 3f 35 01 19 3f 73 78 6f 3f 45 26 72 3f
       0.9478242 0.59767467 0.93543166 0.94589645
000160 ff 28 fd 3e e1 83 22 bd a6 60 94 bd 96 22 9e be
       0.4944534 -0.03967655 -0.07244997 -0.30885762
000170 60 14 7b 3f 8b 34 57 bf 3b 5b 63 3f ce cd a1 3e
       0.98077965 -0.8406455 0.8881108 0.3160233
000180 bd c5 76 3f 0b 05 6c 3f 0c fa 67 3f 57 14 68 3f
       0.96395475 0.92195195 0.90615916 0.90656036
000190 ea e2 91 bc df 6a 7f 3f 83 30 22 3f 70 f7 87 3e
       -0.017808396 0.9977245 0.63355273 0.26555967
0001a0 53 2c 73 3e f5 46 39 3f 08 28 a1 3e ce 2e 2f 3f
       0.23747377 0.72373897 0.31475854 0.68430793
0001b0 10 57 7a 3f 3c 1a 86 3f f8 6b 75 3f b7 71 fc bc
       0.97789097 1.0476756 0.9586787 -0.030815942
0001c0 3b 19 06 3e 66 25 5b 3f 9b ff 97 3d 01 b9 77 3f
       0.13095562 0.8560394 0.074218 0.9676667
0001d0 54 b3 02 3f 14 81 4f 3f a5 f5 58 3f 57 71 6b 3f
       0.51054883 0.8105633 0.84749824 0.9196982
0001e0 0b 0c 66 3f ec 47 5b 3f 3b cc 0e 3f 41 c9 b5 3e
       0.89862126 0.8565662 0.5578038 0.35505107
0001f0 55 cf 91 3e 8f 8c 73 3f d8 48 61 3f ac a2 76 3f
       0.28478494 0.9513635 0.88001776 0.9634197

output.weight f4 [1, 128]
000000 b9 15 37 3d 54 52 4c 3d da 5d b4 3d 79 35 a7 3c
       0.04469845 0.0498832 0.08806963 0.02041124
000010 e3 f6 b1 bc ce b4 23 bf 4a 92 77 3d 03 41 d1 3d
       -0.02172417 -0.6394776 0.060442246 0.10217478
000020 c4 64 81 3d 1b ee 72 bc 0e 36 cd 3d 45 4e d6 3d
       0.06318048 -0.014827277 0.10020076 0.104641475
000030 9a 2f 21 bc a1 2f bb 3d 6f 67 7b bb c4 93 45 3d
       -0.009838009 0.09139944 -0.0038361212 0.048236623
000040 ec e5 d1 3d 8b 2f c2 3d 3a 2e 88 bb e8 3f 83 3d
       0.10248932 0.09481724 -0.0041559013 0.064086735
000050 da 9b 8c be 06 63 99 be a3 1b 53 3d 16 b3 42 3d
       -0.27462655 -0.2995836 0.05154003 0.04753407
000060 f5 bb 17 be ab 91 99 3d ac ff 8c 3d 71 d6 98 be
       -0.14817794 0.07498487 0.06884703 -0.29851106
000070 12 34 43 3d e7 c8 43 be 28 0f 64 3d 61 8c d9 be
       0.04765708 -0.19119607 0.055678517 -0.42489913
000080 1e c3 a7 3d ce 51 2f 3d fe 26 04 bf 39 ea 2c bd
       0.081915125 0.042802624 -0.51622 -0.04221556
000090 bc 10 c0 3d 56 2d af be 10 cd b9 3d a6 71 28 3d
       0.09378192 -0.34214276 0.09072316 0.04112401
0000a0 02 61 c7 3d 48 5a a8 3d 51 3d ed be 04 38 a1 3d
       0.097353 0.08220345 -0.46335843 0.07872012
0000b0 d6 b3 91 3d b0 0f 90 3f 81 98 47 bf f5 a9 5d 3d
       0.07114379 1.1254787 -0.7796708 0.05411716
0000c0 ee 44 af 3d d6 c5 fd be fc 47 bb be 76 ef 0b be
       0.08558069 -0.49565 -0.36578357 -0.13665566
0000d0 60 90 40 bc cc e2 09 bb 3c 7e 97 3d d8 ff 18 3a
       -0.011753172 -0.0021039722 0.07397124 0.00058364635
0000e0 4a 0c c1 be 44 23 b1 3a 28 a1 fd be 6f c5 80 3d
       -0.37704688 0.0013514538 -0.49537015 0.062876575
0000f0 cf 7d 52 be f9 27 08 bf 57 20 95 3d cc 6c a7 3d
       -0.20555805 -0.53185993 0.07281559 0.08175048
000100 ab 7a 0c 3d 1a b6 ab 3d 46 3f 01 be 13 5c 96 3d
       0.034296673 0.083843425 -0.12621793 0.073417805
000110 12 32 a7 3d af b1 ec bb fa 66 fc be 00 a6 1f bf
       0.08163847 -0.00722333 -0.49297315 -0.6236267
000120 22 d2 e0 be cf c6 6e 3d 9c da 3d 3d d0 7e 2e 39
       -0.4391032 0.058295067 0.04635106 0.00016641174
000130 89 8d dc 3d 1a 38 bb be 7c 2e bb be 10 2e d0 3d
       0.10769183 -0.3656624 -0.36558902 0.10165036
000140 3b d2 a5 3d 95 65 cc be 99 41 2c bd ae c1 e2 bd
       0.08096739 -0.3992125 -0.042054746 -0.11072098
000150 18 9f da 3d 6f 18 65 bf 39 b5 3a 3d 3f 25 c2 3d
       0.10674876 -0.8949041 0.045582984 0.094797604
000160 34 6c 0b bf 23 29 3a bc 6c a3 0b bc 31 46 a0 3e
       -0.5446198 -0.011362347 -0.0085228495 0.31303552
000170 97 e1 81 3d b4 f4 f1 bd b2 80 8d 3d e1 56 b8 be
       0.06341856 -0.118142515 0.06909312 -0.36003783
000180 fa d5 d4 3d f7 fe b4 3d c0 ee c9 3d 23 8b 9f 3d
       0.10392375 0.08837693 0.09859991 0.0779021
000190 f4 12 fb bc 20 50 51 3d 53 c6 4e 3d 13 7a 5e be
       -0.030648686 0.051101804 0.050482105 -0.21726255
0001a0 66 22 9a be aa 08 44 3d e1 3e 99 be a4 5b 18 3d
       -0.3010437 0.047859825 -0.29930785 0.03719677
0001b0 17 c6 9f 3d 51 3e 89 3d 16 66 a7 3d a4 2a c5 bc
       0.078014545 0.06701339 0.08173768 -0.024068184
0001c0 23 33 ea bd c6 da c2 3d f8 2c 3f be 59 fe c0 3d
       -0.11435535 0.09514384 -0.18669498 0.09423513
0001d0 dc 33 ee be 3d ce 17 3d 95 03 7d 3d f5 a0 9e 3d
       -0.4652394 0.03706192 0.061770994 0.07745544
0001e0 84 1d 99 3d 5e 9c 2e 3d c8 d7 18 bf 0c c7 ff be
       0.07476333 0.042629592 -0.59704256 -0.49956548
0001f0 6c d6 cd be 5f 67 db 3d c6 6f bb 3d 89 98 d8 3d
       -0.40202653 0.10713076 0.091521785 0.10575969
